{"format": "layers-model", "generatedBy": "keras v3.4.1", "convertedBy": "TensorFlow.js Converter v4.20.0", "modelTopology": {"keras_version": "3.4.1", "backend": "tensorflow", "model_config": {"class_name": "Sequential", "config": {"name": "sequential_3", "trainable": true, "dtype": {"module": "keras", "class_name": "DTypePolicy", "config": {"name": "float32"}, "registered_name": null}, "layers": [{"class_name": "InputLayer", "config": {"batch_shape": [null, 300, 300, 3], "dtype": "float32", "sparse": false, "name": "input_layer_5"}}, {"class_name": "Functional", "config": {"name": "resnet50", "trainable": true, "layers": [{"class_name": "InputLayer", "config": {"batch_shape": [null, 300, 300, 3], "dtype": "float32", "sparse": false, "name": "input_layer_4"}, "name": "input_layer_4", "inbound_nodes": []}, {"class_name": "ZeroPadding2D", "config": {"name": "conv1_pad", "trainable": false, "dtype": {"module": "keras", "class_name": "DTypePolicy", "config": {"name": "float32"}, "registered_name": null}, "padding": [[3, 3], [3, 3]], "data_format": "channels_last"}, "name": "conv1_pad", "inbound_nodes": [{"args": [{"class_name": "__keras_tensor__", "config": {"shape": [null, 300, 300, 3], "dtype": "float32", "keras_history": ["input_layer_4", 0, 0]}}], "kwargs": {}}]}, {"class_name": "Conv2D", "config": {"name": "conv1_conv", "trainable": false, "dtype": {"module": "keras", "class_name": "DTypePolicy", "config": {"name": "float32"}, "registered_name": null}, "filters": 64, "kernel_size": [7, 7], "strides": [2, 2], "padding": "valid", "data_format": "channels_last", "dilation_rate": [1, 1], "groups": 1, "activation": "linear", "use_bias": true, "kernel_initializer": {"module": "keras.initializers", "class_name": "GlorotUniform", "config": {"seed": null}, "registered_name": null}, "bias_initializer": {"module": "keras.initializers", "class_name": "Zeros", "config": {}, "registered_name": null}, "kernel_regularizer": null, "bias_regularizer": null, "activity_regularizer": null, "kernel_constraint": null, "bias_constraint": null}, "name": "conv1_conv", "inbound_nodes": [{"args": [{"class_name": "__keras_tensor__", "config": {"shape": [null, 306, 306, 3], "dtype": "float32", "keras_history": ["conv1_pad", 0, 0]}}], "kwargs": {}}]}, {"class_name": "BatchNormalization", "config": {"name": "conv1_bn", "trainable": false, "dtype": {"module": "keras", "class_name": "DTypePolicy", "config": {"name": "float32"}, "registered_name": null}, "axis": 3, "momentum": 0.99, "epsilon": 1.001e-05, "center": true, "scale": true, "beta_initializer": {"module": "keras.initializers", "class_name": "Zeros", "config": {}, "registered_name": null}, "gamma_initializer": {"module": "keras.initializers", "class_name": "Ones", "config": {}, "registered_name": null}, "moving_mean_initializer": {"module": "keras.initializers", "class_name": "Zeros", "config": {}, "registered_name": null}, "moving_variance_initializer": {"module": "keras.initializers", "class_name": "Ones", "config": {}, "registered_name": null}, "beta_regularizer": null, "gamma_regularizer": null, "beta_constraint": null, "gamma_constraint": null, "synchronized": false}, "name": "conv1_bn", "inbound_nodes": [{"args": [{"class_name": "__keras_tensor__", "config": {"shape": [null, 150, 150, 64], "dtype": "float32", "keras_history": ["conv1_conv", 0, 0]}}], "kwargs": {"mask": null}}]}, {"class_name": "Activation", "config": {"name": "conv1_relu", "trainable": false, "dtype": {"module": "keras", "class_name": "DTypePolicy", "config": {"name": "float32"}, "registered_name": null}, "activation": "relu"}, "name": "conv1_relu", "inbound_nodes": [{"args": [{"class_name": "__keras_tensor__", "config": {"shape": [null, 150, 150, 64], "dtype": "float32", "keras_history": ["conv1_bn", 0, 0]}}], "kwargs": {}}]}, {"class_name": "ZeroPadding2D", "config": {"name": "pool1_pad", "trainable": false, "dtype": {"module": "keras", "class_name": "DTypePolicy", "config": {"name": "float32"}, "registered_name": null}, "padding": [[1, 1], [1, 1]], "data_format": "channels_last"}, "name": "pool1_pad", "inbound_nodes": [{"args": [{"class_name": "__keras_tensor__", "config": {"shape": [null, 150, 150, 64], "dtype": "float32", "keras_history": ["conv1_relu", 0, 0]}}], "kwargs": {}}]}, {"class_name": "MaxPooling2D", "config": {"name": "pool1_pool", "trainable": false, "dtype": {"module": "keras", "class_name": "DTypePolicy", "config": {"name": "float32"}, "registered_name": null}, "pool_size": [3, 3], "padding": "valid", "strides": [2, 2], "data_format": "channels_last"}, "name": "pool1_pool", "inbound_nodes": [{"args": [{"class_name": "__keras_tensor__", "config": {"shape": [null, 152, 152, 64], "dtype": "float32", "keras_history": ["pool1_pad", 0, 0]}}], "kwargs": {}}]}, {"class_name": "Conv2D", "config": {"name": "conv2_block1_1_conv", "trainable": false, "dtype": {"module": "keras", "class_name": "DTypePolicy", "config": {"name": "float32"}, "registered_name": null}, "filters": 64, "kernel_size": [1, 1], "strides": [1, 1], "padding": "valid", "data_format": "channels_last", "dilation_rate": [1, 1], "groups": 1, "activation": "linear", "use_bias": true, "kernel_initializer": {"module": "keras.initializers", "class_name": "GlorotUniform", "config": {"seed": null}, "registered_name": null}, "bias_initializer": {"module": "keras.initializers", "class_name": "Zeros", "config": {}, "registered_name": null}, "kernel_regularizer": null, "bias_regularizer": null, "activity_regularizer": null, "kernel_constraint": null, "bias_constraint": null}, "name": "conv2_block1_1_conv", "inbound_nodes": [{"args": [{"class_name": "__keras_tensor__", "config": {"shape": [null, 75, 75, 64], "dtype": "float32", "keras_history": ["pool1_pool", 0, 0]}}], "kwargs": {}}]}, {"class_name": "BatchNormalization", "config": {"name": "conv2_block1_1_bn", "trainable": false, "dtype": {"module": "keras", "class_name": "DTypePolicy", "config": {"name": "float32"}, "registered_name": null}, "axis": 3, "momentum": 0.99, "epsilon": 1.001e-05, "center": true, "scale": true, "beta_initializer": {"module": "keras.initializers", "class_name": "Zeros", "config": {}, "registered_name": null}, "gamma_initializer": {"module": "keras.initializers", "class_name": "Ones", "config": {}, "registered_name": null}, "moving_mean_initializer": {"module": "keras.initializers", "class_name": "Zeros", "config": {}, "registered_name": null}, "moving_variance_initializer": {"module": "keras.initializers", "class_name": "Ones", "config": {}, "registered_name": null}, "beta_regularizer": null, "gamma_regularizer": null, "beta_constraint": null, "gamma_constraint": null, "synchronized": false}, "name": "conv2_block1_1_bn", "inbound_nodes": [{"args": [{"class_name": "__keras_tensor__", "config": {"shape": [null, 75, 75, 64], "dtype": "float32", "keras_history": ["conv2_block1_1_conv", 0, 0]}}], "kwargs": {"mask": null}}]}, {"class_name": "Activation", "config": {"name": "conv2_block1_1_relu", "trainable": false, "dtype": {"module": "keras", "class_name": "DTypePolicy", "config": {"name": "float32"}, "registered_name": null}, "activation": "relu"}, "name": "conv2_block1_1_relu", "inbound_nodes": [{"args": [{"class_name": "__keras_tensor__", "config": {"shape": [null, 75, 75, 64], "dtype": "float32", "keras_history": ["conv2_block1_1_bn", 0, 0]}}], "kwargs": {}}]}, {"class_name": "Conv2D", "config": {"name": "conv2_block1_2_conv", "trainable": false, "dtype": {"module": "keras", "class_name": "DTypePolicy", "config": {"name": "float32"}, "registered_name": null}, "filters": 64, "kernel_size": [3, 3], "strides": [1, 1], "padding": "same", "data_format": "channels_last", "dilation_rate": [1, 1], "groups": 1, "activation": "linear", "use_bias": true, "kernel_initializer": {"module": "keras.initializers", "class_name": "GlorotUniform", "config": {"seed": null}, "registered_name": null}, "bias_initializer": {"module": "keras.initializers", "class_name": "Zeros", "config": {}, "registered_name": null}, "kernel_regularizer": null, "bias_regularizer": null, "activity_regularizer": null, "kernel_constraint": null, "bias_constraint": null}, "name": "conv2_block1_2_conv", "inbound_nodes": [{"args": [{"class_name": "__keras_tensor__", "config": {"shape": [null, 75, 75, 64], "dtype": "float32", "keras_history": ["conv2_block1_1_relu", 0, 0]}}], "kwargs": {}}]}, {"class_name": "BatchNormalization", "config": {"name": "conv2_block1_2_bn", "trainable": false, "dtype": {"module": "keras", "class_name": "DTypePolicy", "config": {"name": "float32"}, "registered_name": null}, "axis": 3, "momentum": 0.99, "epsilon": 1.001e-05, "center": true, "scale": true, "beta_initializer": {"module": "keras.initializers", "class_name": "Zeros", "config": {}, "registered_name": null}, "gamma_initializer": {"module": "keras.initializers", "class_name": "Ones", "config": {}, "registered_name": null}, "moving_mean_initializer": {"module": "keras.initializers", "class_name": "Zeros", "config": {}, "registered_name": null}, "moving_variance_initializer": {"module": "keras.initializers", "class_name": "Ones", "config": {}, "registered_name": null}, "beta_regularizer": null, "gamma_regularizer": null, "beta_constraint": null, "gamma_constraint": null, "synchronized": false}, "name": "conv2_block1_2_bn", "inbound_nodes": [{"args": [{"class_name": "__keras_tensor__", "config": {"shape": [null, 75, 75, 64], "dtype": "float32", "keras_history": ["conv2_block1_2_conv", 0, 0]}}], "kwargs": {"mask": null}}]}, {"class_name": "Activation", "config": {"name": "conv2_block1_2_relu", "trainable": false, "dtype": {"module": "keras", "class_name": "DTypePolicy", "config": {"name": "float32"}, "registered_name": null}, "activation": "relu"}, "name": "conv2_block1_2_relu", "inbound_nodes": [{"args": [{"class_name": "__keras_tensor__", "config": {"shape": [null, 75, 75, 64], "dtype": "float32", "keras_history": ["conv2_block1_2_bn", 0, 0]}}], "kwargs": {}}]}, {"class_name": "Conv2D", "config": {"name": "conv2_block1_0_conv", "trainable": false, "dtype": {"module": "keras", "class_name": "DTypePolicy", "config": {"name": "float32"}, "registered_name": null}, "filters": 256, "kernel_size": [1, 1], "strides": [1, 1], "padding": "valid", "data_format": "channels_last", "dilation_rate": [1, 1], "groups": 1, "activation": "linear", "use_bias": true, "kernel_initializer": {"module": "keras.initializers", "class_name": "GlorotUniform", "config": {"seed": null}, "registered_name": null}, "bias_initializer": {"module": "keras.initializers", "class_name": "Zeros", "config": {}, "registered_name": null}, "kernel_regularizer": null, "bias_regularizer": null, "activity_regularizer": null, "kernel_constraint": null, "bias_constraint": null}, "name": "conv2_block1_0_conv", "inbound_nodes": [{"args": [{"class_name": "__keras_tensor__", "config": {"shape": [null, 75, 75, 64], "dtype": "float32", "keras_history": ["pool1_pool", 0, 0]}}], "kwargs": {}}]}, {"class_name": "Conv2D", "config": {"name": "conv2_block1_3_conv", "trainable": false, "dtype": {"module": "keras", "class_name": "DTypePolicy", "config": {"name": "float32"}, "registered_name": null}, "filters": 256, "kernel_size": [1, 1], "strides": [1, 1], "padding": "valid", "data_format": "channels_last", "dilation_rate": [1, 1], "groups": 1, "activation": "linear", "use_bias": true, "kernel_initializer": {"module": "keras.initializers", "class_name": "GlorotUniform", "config": {"seed": null}, "registered_name": null}, "bias_initializer": {"module": "keras.initializers", "class_name": "Zeros", "config": {}, "registered_name": null}, "kernel_regularizer": null, "bias_regularizer": null, "activity_regularizer": null, "kernel_constraint": null, "bias_constraint": null}, "name": "conv2_block1_3_conv", "inbound_nodes": [{"args": [{"class_name": "__keras_tensor__", "config": {"shape": [null, 75, 75, 64], "dtype": "float32", "keras_history": ["conv2_block1_2_relu", 0, 0]}}], "kwargs": {}}]}, {"class_name": "BatchNormalization", "config": {"name": "conv2_block1_0_bn", "trainable": false, "dtype": {"module": "keras", "class_name": "DTypePolicy", "config": {"name": "float32"}, "registered_name": null}, "axis": 3, "momentum": 0.99, "epsilon": 1.001e-05, "center": true, "scale": true, "beta_initializer": {"module": "keras.initializers", "class_name": "Zeros", "config": {}, "registered_name": null}, "gamma_initializer": {"module": "keras.initializers", "class_name": "Ones", "config": {}, "registered_name": null}, "moving_mean_initializer": {"module": "keras.initializers", "class_name": "Zeros", "config": {}, "registered_name": null}, "moving_variance_initializer": {"module": "keras.initializers", "class_name": "Ones", "config": {}, "registered_name": null}, "beta_regularizer": null, "gamma_regularizer": null, "beta_constraint": null, "gamma_constraint": null, "synchronized": false}, "name": "conv2_block1_0_bn", "inbound_nodes": [{"args": [{"class_name": "__keras_tensor__", "config": {"shape": [null, 75, 75, 256], "dtype": "float32", "keras_history": ["conv2_block1_0_conv", 0, 0]}}], "kwargs": {"mask": null}}]}, {"class_name": "BatchNormalization", "config": {"name": "conv2_block1_3_bn", "trainable": false, "dtype": {"module": "keras", "class_name": "DTypePolicy", "config": {"name": "float32"}, "registered_name": null}, "axis": 3, "momentum": 0.99, "epsilon": 1.001e-05, "center": true, "scale": true, "beta_initializer": {"module": "keras.initializers", "class_name": "Zeros", "config": {}, "registered_name": null}, "gamma_initializer": {"module": "keras.initializers", "class_name": "Ones", "config": {}, "registered_name": null}, "moving_mean_initializer": {"module": "keras.initializers", "class_name": "Zeros", "config": {}, "registered_name": null}, "moving_variance_initializer": {"module": "keras.initializers", "class_name": "Ones", "config": {}, "registered_name": null}, "beta_regularizer": null, "gamma_regularizer": null, "beta_constraint": null, "gamma_constraint": null, "synchronized": false}, "name": "conv2_block1_3_bn", "inbound_nodes": [{"args": [{"class_name": "__keras_tensor__", "config": {"shape": [null, 75, 75, 256], "dtype": "float32", "keras_history": ["conv2_block1_3_conv", 0, 0]}}], "kwargs": {"mask": null}}]}, {"class_name": "Add", "config": {"name": "conv2_block1_add", "trainable": false, "dtype": {"module": "keras", "class_name": "DTypePolicy", "config": {"name": "float32"}, "registered_name": null}}, "name": "conv2_block1_add", "inbound_nodes": [{"args": [[{"class_name": "__keras_tensor__", "config": {"shape": [null, 75, 75, 256], "dtype": "float32", "keras_history": ["conv2_block1_0_bn", 0, 0]}}, {"class_name": "__keras_tensor__", "config": {"shape": [null, 75, 75, 256], "dtype": "float32", "keras_history": ["conv2_block1_3_bn", 0, 0]}}]], "kwargs": {}}]}, {"class_name": "Activation", "config": {"name": "conv2_block1_out", "trainable": false, "dtype": {"module": "keras", "class_name": "DTypePolicy", "config": {"name": "float32"}, "registered_name": null}, "activation": "relu"}, "name": "conv2_block1_out", "inbound_nodes": [{"args": [{"class_name": "__keras_tensor__", "config": {"shape": [null, 75, 75, 256], "dtype": "float32", "keras_history": ["conv2_block1_add", 0, 0]}}], "kwargs": {}}]}, {"class_name": "Conv2D", "config": {"name": "conv2_block2_1_conv", "trainable": false, "dtype": {"module": "keras", "class_name": "DTypePolicy", "config": {"name": "float32"}, "registered_name": null}, "filters": 64, "kernel_size": [1, 1], "strides": [1, 1], "padding": "valid", "data_format": "channels_last", "dilation_rate": [1, 1], "groups": 1, "activation": "linear", "use_bias": true, "kernel_initializer": {"module": "keras.initializers", "class_name": "GlorotUniform", "config": {"seed": null}, "registered_name": null}, "bias_initializer": {"module": "keras.initializers", "class_name": "Zeros", "config": {}, "registered_name": null}, "kernel_regularizer": null, "bias_regularizer": null, "activity_regularizer": null, "kernel_constraint": null, "bias_constraint": null}, "name": "conv2_block2_1_conv", "inbound_nodes": [{"args": [{"class_name": "__keras_tensor__", "config": {"shape": [null, 75, 75, 256], "dtype": "float32", "keras_history": ["conv2_block1_out", 0, 0]}}], "kwargs": {}}]}, {"class_name": "BatchNormalization", "config": {"name": "conv2_block2_1_bn", "trainable": false, "dtype": {"module": "keras", "class_name": "DTypePolicy", "config": {"name": "float32"}, "registered_name": null}, "axis": 3, "momentum": 0.99, "epsilon": 1.001e-05, "center": true, "scale": true, "beta_initializer": {"module": "keras.initializers", "class_name": "Zeros", "config": {}, "registered_name": null}, "gamma_initializer": {"module": "keras.initializers", "class_name": "Ones", "config": {}, "registered_name": null}, "moving_mean_initializer": {"module": "keras.initializers", "class_name": "Zeros", "config": {}, "registered_name": null}, "moving_variance_initializer": {"module": "keras.initializers", "class_name": "Ones", "config": {}, "registered_name": null}, "beta_regularizer": null, "gamma_regularizer": null, "beta_constraint": null, "gamma_constraint": null, "synchronized": false}, "name": "conv2_block2_1_bn", "inbound_nodes": [{"args": [{"class_name": "__keras_tensor__", "config": {"shape": [null, 75, 75, 64], "dtype": "float32", "keras_history": ["conv2_block2_1_conv", 0, 0]}}], "kwargs": {"mask": null}}]}, {"class_name": "Activation", "config": {"name": "conv2_block2_1_relu", "trainable": false, "dtype": {"module": "keras", "class_name": "DTypePolicy", "config": {"name": "float32"}, "registered_name": null}, "activation": "relu"}, "name": "conv2_block2_1_relu", "inbound_nodes": [{"args": [{"class_name": "__keras_tensor__", "config": {"shape": [null, 75, 75, 64], "dtype": "float32", "keras_history": ["conv2_block2_1_bn", 0, 0]}}], "kwargs": {}}]}, {"class_name": "Conv2D", "config": {"name": "conv2_block2_2_conv", "trainable": false, "dtype": {"module": "keras", "class_name": "DTypePolicy", "config": {"name": "float32"}, "registered_name": null}, "filters": 64, "kernel_size": [3, 3], "strides": [1, 1], "padding": "same", "data_format": "channels_last", "dilation_rate": [1, 1], "groups": 1, "activation": "linear", "use_bias": true, "kernel_initializer": {"module": "keras.initializers", "class_name": "GlorotUniform", "config": {"seed": null}, "registered_name": null}, "bias_initializer": {"module": "keras.initializers", "class_name": "Zeros", "config": {}, "registered_name": null}, "kernel_regularizer": null, "bias_regularizer": null, "activity_regularizer": null, "kernel_constraint": null, "bias_constraint": null}, "name": "conv2_block2_2_conv", "inbound_nodes": [{"args": [{"class_name": "__keras_tensor__", "config": {"shape": [null, 75, 75, 64], "dtype": "float32", "keras_history": ["conv2_block2_1_relu", 0, 0]}}], "kwargs": {}}]}, {"class_name": "BatchNormalization", "config": {"name": "conv2_block2_2_bn", "trainable": false, "dtype": {"module": "keras", "class_name": "DTypePolicy", "config": {"name": "float32"}, "registered_name": null}, "axis": 3, "momentum": 0.99, "epsilon": 1.001e-05, "center": true, "scale": true, "beta_initializer": {"module": "keras.initializers", "class_name": "Zeros", "config": {}, "registered_name": null}, "gamma_initializer": {"module": "keras.initializers", "class_name": "Ones", "config": {}, "registered_name": null}, "moving_mean_initializer": {"module": "keras.initializers", "class_name": "Zeros", "config": {}, "registered_name": null}, "moving_variance_initializer": {"module": "keras.initializers", "class_name": "Ones", "config": {}, "registered_name": null}, "beta_regularizer": null, "gamma_regularizer": null, "beta_constraint": null, "gamma_constraint": null, "synchronized": false}, "name": "conv2_block2_2_bn", "inbound_nodes": [{"args": [{"class_name": "__keras_tensor__", "config": {"shape": [null, 75, 75, 64], "dtype": "float32", "keras_history": ["conv2_block2_2_conv", 0, 0]}}], "kwargs": {"mask": null}}]}, {"class_name": "Activation", "config": {"name": "conv2_block2_2_relu", "trainable": false, "dtype": {"module": "keras", "class_name": "DTypePolicy", "config": {"name": "float32"}, "registered_name": null}, "activation": "relu"}, "name": "conv2_block2_2_relu", "inbound_nodes": [{"args": [{"class_name": "__keras_tensor__", "config": {"shape": [null, 75, 75, 64], "dtype": "float32", "keras_history": ["conv2_block2_2_bn", 0, 0]}}], "kwargs": {}}]}, {"class_name": "Conv2D", "config": {"name": "conv2_block2_3_conv", "trainable": false, "dtype": {"module": "keras", "class_name": "DTypePolicy", "config": {"name": "float32"}, "registered_name": null}, "filters": 256, "kernel_size": [1, 1], "strides": [1, 1], "padding": "valid", "data_format": "channels_last", "dilation_rate": [1, 1], "groups": 1, "activation": "linear", "use_bias": true, "kernel_initializer": {"module": "keras.initializers", "class_name": "GlorotUniform", "config": {"seed": null}, "registered_name": null}, "bias_initializer": {"module": "keras.initializers", "class_name": "Zeros", "config": {}, "registered_name": null}, "kernel_regularizer": null, "bias_regularizer": null, "activity_regularizer": null, "kernel_constraint": null, "bias_constraint": null}, "name": "conv2_block2_3_conv", "inbound_nodes": [{"args": [{"class_name": "__keras_tensor__", "config": {"shape": [null, 75, 75, 64], "dtype": "float32", "keras_history": ["conv2_block2_2_relu", 0, 0]}}], "kwargs": {}}]}, {"class_name": "BatchNormalization", "config": {"name": "conv2_block2_3_bn", "trainable": false, "dtype": {"module": "keras", "class_name": "DTypePolicy", "config": {"name": "float32"}, "registered_name": null}, "axis": 3, "momentum": 0.99, "epsilon": 1.001e-05, "center": true, "scale": true, "beta_initializer": {"module": "keras.initializers", "class_name": "Zeros", "config": {}, "registered_name": null}, "gamma_initializer": {"module": "keras.initializers", "class_name": "Ones", "config": {}, "registered_name": null}, "moving_mean_initializer": {"module": "keras.initializers", "class_name": "Zeros", "config": {}, "registered_name": null}, "moving_variance_initializer": {"module": "keras.initializers", "class_name": "Ones", "config": {}, "registered_name": null}, "beta_regularizer": null, "gamma_regularizer": null, "beta_constraint": null, "gamma_constraint": null, "synchronized": false}, "name": "conv2_block2_3_bn", "inbound_nodes": [{"args": [{"class_name": "__keras_tensor__", "config": {"shape": [null, 75, 75, 256], "dtype": "float32", "keras_history": ["conv2_block2_3_conv", 0, 0]}}], "kwargs": {"mask": null}}]}, {"class_name": "Add", "config": {"name": "conv2_block2_add", "trainable": false, "dtype": {"module": "keras", "class_name": "DTypePolicy", "config": {"name": "float32"}, "registered_name": null}}, "name": "conv2_block2_add", "inbound_nodes": [{"args": [[{"class_name": "__keras_tensor__", "config": {"shape": [null, 75, 75, 256], "dtype": "float32", "keras_history": ["conv2_block1_out", 0, 0]}}, {"class_name": "__keras_tensor__", "config": {"shape": [null, 75, 75, 256], "dtype": "float32", "keras_history": ["conv2_block2_3_bn", 0, 0]}}]], "kwargs": {}}]}, {"class_name": "Activation", "config": {"name": "conv2_block2_out", "trainable": false, "dtype": {"module": "keras", "class_name": "DTypePolicy", "config": {"name": "float32"}, "registered_name": null}, "activation": "relu"}, "name": "conv2_block2_out", "inbound_nodes": [{"args": [{"class_name": "__keras_tensor__", "config": {"shape": [null, 75, 75, 256], "dtype": "float32", "keras_history": ["conv2_block2_add", 0, 0]}}], "kwargs": {}}]}, {"class_name": "Conv2D", "config": {"name": "conv2_block3_1_conv", "trainable": false, "dtype": {"module": "keras", "class_name": "DTypePolicy", "config": {"name": "float32"}, "registered_name": null}, "filters": 64, "kernel_size": [1, 1], "strides": [1, 1], "padding": "valid", "data_format": "channels_last", "dilation_rate": [1, 1], "groups": 1, "activation": "linear", "use_bias": true, "kernel_initializer": {"module": "keras.initializers", "class_name": "GlorotUniform", "config": {"seed": null}, "registered_name": null}, "bias_initializer": {"module": "keras.initializers", "class_name": "Zeros", "config": {}, "registered_name": null}, "kernel_regularizer": null, "bias_regularizer": null, "activity_regularizer": null, "kernel_constraint": null, "bias_constraint": null}, "name": "conv2_block3_1_conv", "inbound_nodes": [{"args": [{"class_name": "__keras_tensor__", "config": {"shape": [null, 75, 75, 256], "dtype": "float32", "keras_history": ["conv2_block2_out", 0, 0]}}], "kwargs": {}}]}, {"class_name": "BatchNormalization", "config": {"name": "conv2_block3_1_bn", "trainable": false, "dtype": {"module": "keras", "class_name": "DTypePolicy", "config": {"name": "float32"}, "registered_name": null}, "axis": 3, "momentum": 0.99, "epsilon": 1.001e-05, "center": true, "scale": true, "beta_initializer": {"module": "keras.initializers", "class_name": "Zeros", "config": {}, "registered_name": null}, "gamma_initializer": {"module": "keras.initializers", "class_name": "Ones", "config": {}, "registered_name": null}, "moving_mean_initializer": {"module": "keras.initializers", "class_name": "Zeros", "config": {}, "registered_name": null}, "moving_variance_initializer": {"module": "keras.initializers", "class_name": "Ones", "config": {}, "registered_name": null}, "beta_regularizer": null, "gamma_regularizer": null, "beta_constraint": null, "gamma_constraint": null, "synchronized": false}, "name": "conv2_block3_1_bn", "inbound_nodes": [{"args": [{"class_name": "__keras_tensor__", "config": {"shape": [null, 75, 75, 64], "dtype": "float32", "keras_history": ["conv2_block3_1_conv", 0, 0]}}], "kwargs": {"mask": null}}]}, {"class_name": "Activation", "config": {"name": "conv2_block3_1_relu", "trainable": false, "dtype": {"module": "keras", "class_name": "DTypePolicy", "config": {"name": "float32"}, "registered_name": null}, "activation": "relu"}, "name": "conv2_block3_1_relu", "inbound_nodes": [{"args": [{"class_name": "__keras_tensor__", "config": {"shape": [null, 75, 75, 64], "dtype": "float32", "keras_history": ["conv2_block3_1_bn", 0, 0]}}], "kwargs": {}}]}, {"class_name": "Conv2D", "config": {"name": "conv2_block3_2_conv", "trainable": false, "dtype": {"module": "keras", "class_name": "DTypePolicy", "config": {"name": "float32"}, "registered_name": null}, "filters": 64, "kernel_size": [3, 3], "strides": [1, 1], "padding": "same", "data_format": "channels_last", "dilation_rate": [1, 1], "groups": 1, "activation": "linear", "use_bias": true, "kernel_initializer": {"module": "keras.initializers", "class_name": "GlorotUniform", "config": {"seed": null}, "registered_name": null}, "bias_initializer": {"module": "keras.initializers", "class_name": "Zeros", "config": {}, "registered_name": null}, "kernel_regularizer": null, "bias_regularizer": null, "activity_regularizer": null, "kernel_constraint": null, "bias_constraint": null}, "name": "conv2_block3_2_conv", "inbound_nodes": [{"args": [{"class_name": "__keras_tensor__", "config": {"shape": [null, 75, 75, 64], "dtype": "float32", "keras_history": ["conv2_block3_1_relu", 0, 0]}}], "kwargs": {}}]}, {"class_name": "BatchNormalization", "config": {"name": "conv2_block3_2_bn", "trainable": false, "dtype": {"module": "keras", "class_name": "DTypePolicy", "config": {"name": "float32"}, "registered_name": null}, "axis": 3, "momentum": 0.99, "epsilon": 1.001e-05, "center": true, "scale": true, "beta_initializer": {"module": "keras.initializers", "class_name": "Zeros", "config": {}, "registered_name": null}, "gamma_initializer": {"module": "keras.initializers", "class_name": "Ones", "config": {}, "registered_name": null}, "moving_mean_initializer": {"module": "keras.initializers", "class_name": "Zeros", "config": {}, "registered_name": null}, "moving_variance_initializer": {"module": "keras.initializers", "class_name": "Ones", "config": {}, "registered_name": null}, "beta_regularizer": null, "gamma_regularizer": null, "beta_constraint": null, "gamma_constraint": null, "synchronized": false}, "name": "conv2_block3_2_bn", "inbound_nodes": [{"args": [{"class_name": "__keras_tensor__", "config": {"shape": [null, 75, 75, 64], "dtype": "float32", "keras_history": ["conv2_block3_2_conv", 0, 0]}}], "kwargs": {"mask": null}}]}, {"class_name": "Activation", "config": {"name": "conv2_block3_2_relu", "trainable": false, "dtype": {"module": "keras", "class_name": "DTypePolicy", "config": {"name": "float32"}, "registered_name": null}, "activation": "relu"}, "name": "conv2_block3_2_relu", "inbound_nodes": [{"args": [{"class_name": "__keras_tensor__", "config": {"shape": [null, 75, 75, 64], "dtype": "float32", "keras_history": ["conv2_block3_2_bn", 0, 0]}}], "kwargs": {}}]}, {"class_name": "Conv2D", "config": {"name": "conv2_block3_3_conv", "trainable": false, "dtype": {"module": "keras", "class_name": "DTypePolicy", "config": {"name": "float32"}, "registered_name": null}, "filters": 256, "kernel_size": [1, 1], "strides": [1, 1], "padding": "valid", "data_format": "channels_last", "dilation_rate": [1, 1], "groups": 1, "activation": "linear", "use_bias": true, "kernel_initializer": {"module": "keras.initializers", "class_name": "GlorotUniform", "config": {"seed": null}, "registered_name": null}, "bias_initializer": {"module": "keras.initializers", "class_name": "Zeros", "config": {}, "registered_name": null}, "kernel_regularizer": null, "bias_regularizer": null, "activity_regularizer": null, "kernel_constraint": null, "bias_constraint": null}, "name": "conv2_block3_3_conv", "inbound_nodes": [{"args": [{"class_name": "__keras_tensor__", "config": {"shape": [null, 75, 75, 64], "dtype": "float32", "keras_history": ["conv2_block3_2_relu", 0, 0]}}], "kwargs": {}}]}, {"class_name": "BatchNormalization", "config": {"name": "conv2_block3_3_bn", "trainable": false, "dtype": {"module": "keras", "class_name": "DTypePolicy", "config": {"name": "float32"}, "registered_name": null}, "axis": 3, "momentum": 0.99, "epsilon": 1.001e-05, "center": true, "scale": true, "beta_initializer": {"module": "keras.initializers", "class_name": "Zeros", "config": {}, "registered_name": null}, "gamma_initializer": {"module": "keras.initializers", "class_name": "Ones", "config": {}, "registered_name": null}, "moving_mean_initializer": {"module": "keras.initializers", "class_name": "Zeros", "config": {}, "registered_name": null}, "moving_variance_initializer": {"module": "keras.initializers", "class_name": "Ones", "config": {}, "registered_name": null}, "beta_regularizer": null, "gamma_regularizer": null, "beta_constraint": null, "gamma_constraint": null, "synchronized": false}, "name": "conv2_block3_3_bn", "inbound_nodes": [{"args": [{"class_name": "__keras_tensor__", "config": {"shape": [null, 75, 75, 256], "dtype": "float32", "keras_history": ["conv2_block3_3_conv", 0, 0]}}], "kwargs": {"mask": null}}]}, {"class_name": "Add", "config": {"name": "conv2_block3_add", "trainable": false, "dtype": {"module": "keras", "class_name": "DTypePolicy", "config": {"name": "float32"}, "registered_name": null}}, "name": "conv2_block3_add", "inbound_nodes": [{"args": [[{"class_name": "__keras_tensor__", "config": {"shape": [null, 75, 75, 256], "dtype": "float32", "keras_history": ["conv2_block2_out", 0, 0]}}, {"class_name": "__keras_tensor__", "config": {"shape": [null, 75, 75, 256], "dtype": "float32", "keras_history": ["conv2_block3_3_bn", 0, 0]}}]], "kwargs": {}}]}, {"class_name": "Activation", "config": {"name": "conv2_block3_out", "trainable": false, "dtype": {"module": "keras", "class_name": "DTypePolicy", "config": {"name": "float32"}, "registered_name": null}, "activation": "relu"}, "name": "conv2_block3_out", "inbound_nodes": [{"args": [{"class_name": "__keras_tensor__", "config": {"shape": [null, 75, 75, 256], "dtype": "float32", "keras_history": ["conv2_block3_add", 0, 0]}}], "kwargs": {}}]}, {"class_name": "Conv2D", "config": {"name": "conv3_block1_1_conv", "trainable": false, "dtype": {"module": "keras", "class_name": "DTypePolicy", "config": {"name": "float32"}, "registered_name": null}, "filters": 128, "kernel_size": [1, 1], "strides": [2, 2], "padding": "valid", "data_format": "channels_last", "dilation_rate": [1, 1], "groups": 1, "activation": "linear", "use_bias": true, "kernel_initializer": {"module": "keras.initializers", "class_name": "GlorotUniform", "config": {"seed": null}, "registered_name": null}, "bias_initializer": {"module": "keras.initializers", "class_name": "Zeros", "config": {}, "registered_name": null}, "kernel_regularizer": null, "bias_regularizer": null, "activity_regularizer": null, "kernel_constraint": null, "bias_constraint": null}, "name": "conv3_block1_1_conv", "inbound_nodes": [{"args": [{"class_name": "__keras_tensor__", "config": {"shape": [null, 75, 75, 256], "dtype": "float32", "keras_history": ["conv2_block3_out", 0, 0]}}], "kwargs": {}}]}, {"class_name": "BatchNormalization", "config": {"name": "conv3_block1_1_bn", "trainable": false, "dtype": {"module": "keras", "class_name": "DTypePolicy", "config": {"name": "float32"}, "registered_name": null}, "axis": 3, "momentum": 0.99, "epsilon": 1.001e-05, "center": true, "scale": true, "beta_initializer": {"module": "keras.initializers", "class_name": "Zeros", "config": {}, "registered_name": null}, "gamma_initializer": {"module": "keras.initializers", "class_name": "Ones", "config": {}, "registered_name": null}, "moving_mean_initializer": {"module": "keras.initializers", "class_name": "Zeros", "config": {}, "registered_name": null}, "moving_variance_initializer": {"module": "keras.initializers", "class_name": "Ones", "config": {}, "registered_name": null}, "beta_regularizer": null, "gamma_regularizer": null, "beta_constraint": null, "gamma_constraint": null, "synchronized": false}, "name": "conv3_block1_1_bn", "inbound_nodes": [{"args": [{"class_name": "__keras_tensor__", "config": {"shape": [null, 38, 38, 128], "dtype": "float32", "keras_history": ["conv3_block1_1_conv", 0, 0]}}], "kwargs": {"mask": null}}]}, {"class_name": "Activation", "config": {"name": "conv3_block1_1_relu", "trainable": false, "dtype": {"module": "keras", "class_name": "DTypePolicy", "config": {"name": "float32"}, "registered_name": null}, "activation": "relu"}, "name": "conv3_block1_1_relu", "inbound_nodes": [{"args": [{"class_name": "__keras_tensor__", "config": {"shape": [null, 38, 38, 128], "dtype": "float32", "keras_history": ["conv3_block1_1_bn", 0, 0]}}], "kwargs": {}}]}, {"class_name": "Conv2D", "config": {"name": "conv3_block1_2_conv", "trainable": false, "dtype": {"module": "keras", "class_name": "DTypePolicy", "config": {"name": "float32"}, "registered_name": null}, "filters": 128, "kernel_size": [3, 3], "strides": [1, 1], "padding": "same", "data_format": "channels_last", "dilation_rate": [1, 1], "groups": 1, "activation": "linear", "use_bias": true, "kernel_initializer": {"module": "keras.initializers", "class_name": "GlorotUniform", "config": {"seed": null}, "registered_name": null}, "bias_initializer": {"module": "keras.initializers", "class_name": "Zeros", "config": {}, "registered_name": null}, "kernel_regularizer": null, "bias_regularizer": null, "activity_regularizer": null, "kernel_constraint": null, "bias_constraint": null}, "name": "conv3_block1_2_conv", "inbound_nodes": [{"args": [{"class_name": "__keras_tensor__", "config": {"shape": [null, 38, 38, 128], "dtype": "float32", "keras_history": ["conv3_block1_1_relu", 0, 0]}}], "kwargs": {}}]}, {"class_name": "BatchNormalization", "config": {"name": "conv3_block1_2_bn", "trainable": false, "dtype": {"module": "keras", "class_name": "DTypePolicy", "config": {"name": "float32"}, "registered_name": null}, "axis": 3, "momentum": 0.99, "epsilon": 1.001e-05, "center": true, "scale": true, "beta_initializer": {"module": "keras.initializers", "class_name": "Zeros", "config": {}, "registered_name": null}, "gamma_initializer": {"module": "keras.initializers", "class_name": "Ones", "config": {}, "registered_name": null}, "moving_mean_initializer": {"module": "keras.initializers", "class_name": "Zeros", "config": {}, "registered_name": null}, "moving_variance_initializer": {"module": "keras.initializers", "class_name": "Ones", "config": {}, "registered_name": null}, "beta_regularizer": null, "gamma_regularizer": null, "beta_constraint": null, "gamma_constraint": null, "synchronized": false}, "name": "conv3_block1_2_bn", "inbound_nodes": [{"args": [{"class_name": "__keras_tensor__", "config": {"shape": [null, 38, 38, 128], "dtype": "float32", "keras_history": ["conv3_block1_2_conv", 0, 0]}}], "kwargs": {"mask": null}}]}, {"class_name": "Activation", "config": {"name": "conv3_block1_2_relu", "trainable": false, "dtype": {"module": "keras", "class_name": "DTypePolicy", "config": {"name": "float32"}, "registered_name": null}, "activation": "relu"}, "name": "conv3_block1_2_relu", "inbound_nodes": [{"args": [{"class_name": "__keras_tensor__", "config": {"shape": [null, 38, 38, 128], "dtype": "float32", "keras_history": ["conv3_block1_2_bn", 0, 0]}}], "kwargs": {}}]}, {"class_name": "Conv2D", "config": {"name": "conv3_block1_0_conv", "trainable": false, "dtype": {"module": "keras", "class_name": "DTypePolicy", "config": {"name": "float32"}, "registered_name": null}, "filters": 512, "kernel_size": [1, 1], "strides": [2, 2], "padding": "valid", "data_format": "channels_last", "dilation_rate": [1, 1], "groups": 1, "activation": "linear", "use_bias": true, "kernel_initializer": {"module": "keras.initializers", "class_name": "GlorotUniform", "config": {"seed": null}, "registered_name": null}, "bias_initializer": {"module": "keras.initializers", "class_name": "Zeros", "config": {}, "registered_name": null}, "kernel_regularizer": null, "bias_regularizer": null, "activity_regularizer": null, "kernel_constraint": null, "bias_constraint": null}, "name": "conv3_block1_0_conv", "inbound_nodes": [{"args": [{"class_name": "__keras_tensor__", "config": {"shape": [null, 75, 75, 256], "dtype": "float32", "keras_history": ["conv2_block3_out", 0, 0]}}], "kwargs": {}}]}, {"class_name": "Conv2D", "config": {"name": "conv3_block1_3_conv", "trainable": false, "dtype": {"module": "keras", "class_name": "DTypePolicy", "config": {"name": "float32"}, "registered_name": null}, "filters": 512, "kernel_size": [1, 1], "strides": [1, 1], "padding": "valid", "data_format": "channels_last", "dilation_rate": [1, 1], "groups": 1, "activation": "linear", "use_bias": true, "kernel_initializer": {"module": "keras.initializers", "class_name": "GlorotUniform", "config": {"seed": null}, "registered_name": null}, "bias_initializer": {"module": "keras.initializers", "class_name": "Zeros", "config": {}, "registered_name": null}, "kernel_regularizer": null, "bias_regularizer": null, "activity_regularizer": null, "kernel_constraint": null, "bias_constraint": null}, "name": "conv3_block1_3_conv", "inbound_nodes": [{"args": [{"class_name": "__keras_tensor__", "config": {"shape": [null, 38, 38, 128], "dtype": "float32", "keras_history": ["conv3_block1_2_relu", 0, 0]}}], "kwargs": {}}]}, {"class_name": "BatchNormalization", "config": {"name": "conv3_block1_0_bn", "trainable": false, "dtype": {"module": "keras", "class_name": "DTypePolicy", "config": {"name": "float32"}, "registered_name": null}, "axis": 3, "momentum": 0.99, "epsilon": 1.001e-05, "center": true, "scale": true, "beta_initializer": {"module": "keras.initializers", "class_name": "Zeros", "config": {}, "registered_name": null}, "gamma_initializer": {"module": "keras.initializers", "class_name": "Ones", "config": {}, "registered_name": null}, "moving_mean_initializer": {"module": "keras.initializers", "class_name": "Zeros", "config": {}, "registered_name": null}, "moving_variance_initializer": {"module": "keras.initializers", "class_name": "Ones", "config": {}, "registered_name": null}, "beta_regularizer": null, "gamma_regularizer": null, "beta_constraint": null, "gamma_constraint": null, "synchronized": false}, "name": "conv3_block1_0_bn", "inbound_nodes": [{"args": [{"class_name": "__keras_tensor__", "config": {"shape": [null, 38, 38, 512], "dtype": "float32", "keras_history": ["conv3_block1_0_conv", 0, 0]}}], "kwargs": {"mask": null}}]}, {"class_name": "BatchNormalization", "config": {"name": "conv3_block1_3_bn", "trainable": false, "dtype": {"module": "keras", "class_name": "DTypePolicy", "config": {"name": "float32"}, "registered_name": null}, "axis": 3, "momentum": 0.99, "epsilon": 1.001e-05, "center": true, "scale": true, "beta_initializer": {"module": "keras.initializers", "class_name": "Zeros", "config": {}, "registered_name": null}, "gamma_initializer": {"module": "keras.initializers", "class_name": "Ones", "config": {}, "registered_name": null}, "moving_mean_initializer": {"module": "keras.initializers", "class_name": "Zeros", "config": {}, "registered_name": null}, "moving_variance_initializer": {"module": "keras.initializers", "class_name": "Ones", "config": {}, "registered_name": null}, "beta_regularizer": null, "gamma_regularizer": null, "beta_constraint": null, "gamma_constraint": null, "synchronized": false}, "name": "conv3_block1_3_bn", "inbound_nodes": [{"args": [{"class_name": "__keras_tensor__", "config": {"shape": [null, 38, 38, 512], "dtype": "float32", "keras_history": ["conv3_block1_3_conv", 0, 0]}}], "kwargs": {"mask": null}}]}, {"class_name": "Add", "config": {"name": "conv3_block1_add", "trainable": false, "dtype": {"module": "keras", "class_name": "DTypePolicy", "config": {"name": "float32"}, "registered_name": null}}, "name": "conv3_block1_add", "inbound_nodes": [{"args": [[{"class_name": "__keras_tensor__", "config": {"shape": [null, 38, 38, 512], "dtype": "float32", "keras_history": ["conv3_block1_0_bn", 0, 0]}}, {"class_name": "__keras_tensor__", "config": {"shape": [null, 38, 38, 512], "dtype": "float32", "keras_history": ["conv3_block1_3_bn", 0, 0]}}]], "kwargs": {}}]}, {"class_name": "Activation", "config": {"name": "conv3_block1_out", "trainable": false, "dtype": {"module": "keras", "class_name": "DTypePolicy", "config": {"name": "float32"}, "registered_name": null}, "activation": "relu"}, "name": "conv3_block1_out", "inbound_nodes": [{"args": [{"class_name": "__keras_tensor__", "config": {"shape": [null, 38, 38, 512], "dtype": "float32", "keras_history": ["conv3_block1_add", 0, 0]}}], "kwargs": {}}]}, {"class_name": "Conv2D", "config": {"name": "conv3_block2_1_conv", "trainable": false, "dtype": {"module": "keras", "class_name": "DTypePolicy", "config": {"name": "float32"}, "registered_name": null}, "filters": 128, "kernel_size": [1, 1], "strides": [1, 1], "padding": "valid", "data_format": "channels_last", "dilation_rate": [1, 1], "groups": 1, "activation": "linear", "use_bias": true, "kernel_initializer": {"module": "keras.initializers", "class_name": "GlorotUniform", "config": {"seed": null}, "registered_name": null}, "bias_initializer": {"module": "keras.initializers", "class_name": "Zeros", "config": {}, "registered_name": null}, "kernel_regularizer": null, "bias_regularizer": null, "activity_regularizer": null, "kernel_constraint": null, "bias_constraint": null}, "name": "conv3_block2_1_conv", "inbound_nodes": [{"args": [{"class_name": "__keras_tensor__", "config": {"shape": [null, 38, 38, 512], "dtype": "float32", "keras_history": ["conv3_block1_out", 0, 0]}}], "kwargs": {}}]}, {"class_name": "BatchNormalization", "config": {"name": "conv3_block2_1_bn", "trainable": false, "dtype": {"module": "keras", "class_name": "DTypePolicy", "config": {"name": "float32"}, "registered_name": null}, "axis": 3, "momentum": 0.99, "epsilon": 1.001e-05, "center": true, "scale": true, "beta_initializer": {"module": "keras.initializers", "class_name": "Zeros", "config": {}, "registered_name": null}, "gamma_initializer": {"module": "keras.initializers", "class_name": "Ones", "config": {}, "registered_name": null}, "moving_mean_initializer": {"module": "keras.initializers", "class_name": "Zeros", "config": {}, "registered_name": null}, "moving_variance_initializer": {"module": "keras.initializers", "class_name": "Ones", "config": {}, "registered_name": null}, "beta_regularizer": null, "gamma_regularizer": null, "beta_constraint": null, "gamma_constraint": null, "synchronized": false}, "name": "conv3_block2_1_bn", "inbound_nodes": [{"args": [{"class_name": "__keras_tensor__", "config": {"shape": [null, 38, 38, 128], "dtype": "float32", "keras_history": ["conv3_block2_1_conv", 0, 0]}}], "kwargs": {"mask": null}}]}, {"class_name": "Activation", "config": {"name": "conv3_block2_1_relu", "trainable": false, "dtype": {"module": "keras", "class_name": "DTypePolicy", "config": {"name": "float32"}, "registered_name": null}, "activation": "relu"}, "name": "conv3_block2_1_relu", "inbound_nodes": [{"args": [{"class_name": "__keras_tensor__", "config": {"shape": [null, 38, 38, 128], "dtype": "float32", "keras_history": ["conv3_block2_1_bn", 0, 0]}}], "kwargs": {}}]}, {"class_name": "Conv2D", "config": {"name": "conv3_block2_2_conv", "trainable": false, "dtype": {"module": "keras", "class_name": "DTypePolicy", "config": {"name": "float32"}, "registered_name": null}, "filters": 128, "kernel_size": [3, 3], "strides": [1, 1], "padding": "same", "data_format": "channels_last", "dilation_rate": [1, 1], "groups": 1, "activation": "linear", "use_bias": true, "kernel_initializer": {"module": "keras.initializers", "class_name": "GlorotUniform", "config": {"seed": null}, "registered_name": null}, "bias_initializer": {"module": "keras.initializers", "class_name": "Zeros", "config": {}, "registered_name": null}, "kernel_regularizer": null, "bias_regularizer": null, "activity_regularizer": null, "kernel_constraint": null, "bias_constraint": null}, "name": "conv3_block2_2_conv", "inbound_nodes": [{"args": [{"class_name": "__keras_tensor__", "config": {"shape": [null, 38, 38, 128], "dtype": "float32", "keras_history": ["conv3_block2_1_relu", 0, 0]}}], "kwargs": {}}]}, {"class_name": "BatchNormalization", "config": {"name": "conv3_block2_2_bn", "trainable": false, "dtype": {"module": "keras", "class_name": "DTypePolicy", "config": {"name": "float32"}, "registered_name": null}, "axis": 3, "momentum": 0.99, "epsilon": 1.001e-05, "center": true, "scale": true, "beta_initializer": {"module": "keras.initializers", "class_name": "Zeros", "config": {}, "registered_name": null}, "gamma_initializer": {"module": "keras.initializers", "class_name": "Ones", "config": {}, "registered_name": null}, "moving_mean_initializer": {"module": "keras.initializers", "class_name": "Zeros", "config": {}, "registered_name": null}, "moving_variance_initializer": {"module": "keras.initializers", "class_name": "Ones", "config": {}, "registered_name": null}, "beta_regularizer": null, "gamma_regularizer": null, "beta_constraint": null, "gamma_constraint": null, "synchronized": false}, "name": "conv3_block2_2_bn", "inbound_nodes": [{"args": [{"class_name": "__keras_tensor__", "config": {"shape": [null, 38, 38, 128], "dtype": "float32", "keras_history": ["conv3_block2_2_conv", 0, 0]}}], "kwargs": {"mask": null}}]}, {"class_name": "Activation", "config": {"name": "conv3_block2_2_relu", "trainable": false, "dtype": {"module": "keras", "class_name": "DTypePolicy", "config": {"name": "float32"}, "registered_name": null}, "activation": "relu"}, "name": "conv3_block2_2_relu", "inbound_nodes": [{"args": [{"class_name": "__keras_tensor__", "config": {"shape": [null, 38, 38, 128], "dtype": "float32", "keras_history": ["conv3_block2_2_bn", 0, 0]}}], "kwargs": {}}]}, {"class_name": "Conv2D", "config": {"name": "conv3_block2_3_conv", "trainable": false, "dtype": {"module": "keras", "class_name": "DTypePolicy", "config": {"name": "float32"}, "registered_name": null}, "filters": 512, "kernel_size": [1, 1], "strides": [1, 1], "padding": "valid", "data_format": "channels_last", "dilation_rate": [1, 1], "groups": 1, "activation": "linear", "use_bias": true, "kernel_initializer": {"module": "keras.initializers", "class_name": "GlorotUniform", "config": {"seed": null}, "registered_name": null}, "bias_initializer": {"module": "keras.initializers", "class_name": "Zeros", "config": {}, "registered_name": null}, "kernel_regularizer": null, "bias_regularizer": null, "activity_regularizer": null, "kernel_constraint": null, "bias_constraint": null}, "name": "conv3_block2_3_conv", "inbound_nodes": [{"args": [{"class_name": "__keras_tensor__", "config": {"shape": [null, 38, 38, 128], "dtype": "float32", "keras_history": ["conv3_block2_2_relu", 0, 0]}}], "kwargs": {}}]}, {"class_name": "BatchNormalization", "config": {"name": "conv3_block2_3_bn", "trainable": false, "dtype": {"module": "keras", "class_name": "DTypePolicy", "config": {"name": "float32"}, "registered_name": null}, "axis": 3, "momentum": 0.99, "epsilon": 1.001e-05, "center": true, "scale": true, "beta_initializer": {"module": "keras.initializers", "class_name": "Zeros", "config": {}, "registered_name": null}, "gamma_initializer": {"module": "keras.initializers", "class_name": "Ones", "config": {}, "registered_name": null}, "moving_mean_initializer": {"module": "keras.initializers", "class_name": "Zeros", "config": {}, "registered_name": null}, "moving_variance_initializer": {"module": "keras.initializers", "class_name": "Ones", "config": {}, "registered_name": null}, "beta_regularizer": null, "gamma_regularizer": null, "beta_constraint": null, "gamma_constraint": null, "synchronized": false}, "name": "conv3_block2_3_bn", "inbound_nodes": [{"args": [{"class_name": "__keras_tensor__", "config": {"shape": [null, 38, 38, 512], "dtype": "float32", "keras_history": ["conv3_block2_3_conv", 0, 0]}}], "kwargs": {"mask": null}}]}, {"class_name": "Add", "config": {"name": "conv3_block2_add", "trainable": false, "dtype": {"module": "keras", "class_name": "DTypePolicy", "config": {"name": "float32"}, "registered_name": null}}, "name": "conv3_block2_add", "inbound_nodes": [{"args": [[{"class_name": "__keras_tensor__", "config": {"shape": [null, 38, 38, 512], "dtype": "float32", "keras_history": ["conv3_block1_out", 0, 0]}}, {"class_name": "__keras_tensor__", "config": {"shape": [null, 38, 38, 512], "dtype": "float32", "keras_history": ["conv3_block2_3_bn", 0, 0]}}]], "kwargs": {}}]}, {"class_name": "Activation", "config": {"name": "conv3_block2_out", "trainable": false, "dtype": {"module": "keras", "class_name": "DTypePolicy", "config": {"name": "float32"}, "registered_name": null}, "activation": "relu"}, "name": "conv3_block2_out", "inbound_nodes": [{"args": [{"class_name": "__keras_tensor__", "config": {"shape": [null, 38, 38, 512], "dtype": "float32", "keras_history": ["conv3_block2_add", 0, 0]}}], "kwargs": {}}]}, {"class_name": "Conv2D", "config": {"name": "conv3_block3_1_conv", "trainable": false, "dtype": {"module": "keras", "class_name": "DTypePolicy", "config": {"name": "float32"}, "registered_name": null}, "filters": 128, "kernel_size": [1, 1], "strides": [1, 1], "padding": "valid", "data_format": "channels_last", "dilation_rate": [1, 1], "groups": 1, "activation": "linear", "use_bias": true, "kernel_initializer": {"module": "keras.initializers", "class_name": "GlorotUniform", "config": {"seed": null}, "registered_name": null}, "bias_initializer": {"module": "keras.initializers", "class_name": "Zeros", "config": {}, "registered_name": null}, "kernel_regularizer": null, "bias_regularizer": null, "activity_regularizer": null, "kernel_constraint": null, "bias_constraint": null}, "name": "conv3_block3_1_conv", "inbound_nodes": [{"args": [{"class_name": "__keras_tensor__", "config": {"shape": [null, 38, 38, 512], "dtype": "float32", "keras_history": ["conv3_block2_out", 0, 0]}}], "kwargs": {}}]}, {"class_name": "BatchNormalization", "config": {"name": "conv3_block3_1_bn", "trainable": false, "dtype": {"module": "keras", "class_name": "DTypePolicy", "config": {"name": "float32"}, "registered_name": null}, "axis": 3, "momentum": 0.99, "epsilon": 1.001e-05, "center": true, "scale": true, "beta_initializer": {"module": "keras.initializers", "class_name": "Zeros", "config": {}, "registered_name": null}, "gamma_initializer": {"module": "keras.initializers", "class_name": "Ones", "config": {}, "registered_name": null}, "moving_mean_initializer": {"module": "keras.initializers", "class_name": "Zeros", "config": {}, "registered_name": null}, "moving_variance_initializer": {"module": "keras.initializers", "class_name": "Ones", "config": {}, "registered_name": null}, "beta_regularizer": null, "gamma_regularizer": null, "beta_constraint": null, "gamma_constraint": null, "synchronized": false}, "name": "conv3_block3_1_bn", "inbound_nodes": [{"args": [{"class_name": "__keras_tensor__", "config": {"shape": [null, 38, 38, 128], "dtype": "float32", "keras_history": ["conv3_block3_1_conv", 0, 0]}}], "kwargs": {"mask": null}}]}, {"class_name": "Activation", "config": {"name": "conv3_block3_1_relu", "trainable": false, "dtype": {"module": "keras", "class_name": "DTypePolicy", "config": {"name": "float32"}, "registered_name": null}, "activation": "relu"}, "name": "conv3_block3_1_relu", "inbound_nodes": [{"args": [{"class_name": "__keras_tensor__", "config": {"shape": [null, 38, 38, 128], "dtype": "float32", "keras_history": ["conv3_block3_1_bn", 0, 0]}}], "kwargs": {}}]}, {"class_name": "Conv2D", "config": {"name": "conv3_block3_2_conv", "trainable": false, "dtype": {"module": "keras", "class_name": "DTypePolicy", "config": {"name": "float32"}, "registered_name": null}, "filters": 128, "kernel_size": [3, 3], "strides": [1, 1], "padding": "same", "data_format": "channels_last", "dilation_rate": [1, 1], "groups": 1, "activation": "linear", "use_bias": true, "kernel_initializer": {"module": "keras.initializers", "class_name": "GlorotUniform", "config": {"seed": null}, "registered_name": null}, "bias_initializer": {"module": "keras.initializers", "class_name": "Zeros", "config": {}, "registered_name": null}, "kernel_regularizer": null, "bias_regularizer": null, "activity_regularizer": null, "kernel_constraint": null, "bias_constraint": null}, "name": "conv3_block3_2_conv", "inbound_nodes": [{"args": [{"class_name": "__keras_tensor__", "config": {"shape": [null, 38, 38, 128], "dtype": "float32", "keras_history": ["conv3_block3_1_relu", 0, 0]}}], "kwargs": {}}]}, {"class_name": "BatchNormalization", "config": {"name": "conv3_block3_2_bn", "trainable": false, "dtype": {"module": "keras", "class_name": "DTypePolicy", "config": {"name": "float32"}, "registered_name": null}, "axis": 3, "momentum": 0.99, "epsilon": 1.001e-05, "center": true, "scale": true, "beta_initializer": {"module": "keras.initializers", "class_name": "Zeros", "config": {}, "registered_name": null}, "gamma_initializer": {"module": "keras.initializers", "class_name": "Ones", "config": {}, "registered_name": null}, "moving_mean_initializer": {"module": "keras.initializers", "class_name": "Zeros", "config": {}, "registered_name": null}, "moving_variance_initializer": {"module": "keras.initializers", "class_name": "Ones", "config": {}, "registered_name": null}, "beta_regularizer": null, "gamma_regularizer": null, "beta_constraint": null, "gamma_constraint": null, "synchronized": false}, "name": "conv3_block3_2_bn", "inbound_nodes": [{"args": [{"class_name": "__keras_tensor__", "config": {"shape": [null, 38, 38, 128], "dtype": "float32", "keras_history": ["conv3_block3_2_conv", 0, 0]}}], "kwargs": {"mask": null}}]}, {"class_name": "Activation", "config": {"name": "conv3_block3_2_relu", "trainable": false, "dtype": {"module": "keras", "class_name": "DTypePolicy", "config": {"name": "float32"}, "registered_name": null}, "activation": "relu"}, "name": "conv3_block3_2_relu", "inbound_nodes": [{"args": [{"class_name": "__keras_tensor__", "config": {"shape": [null, 38, 38, 128], "dtype": "float32", "keras_history": ["conv3_block3_2_bn", 0, 0]}}], "kwargs": {}}]}, {"class_name": "Conv2D", "config": {"name": "conv3_block3_3_conv", "trainable": false, "dtype": {"module": "keras", "class_name": "DTypePolicy", "config": {"name": "float32"}, "registered_name": null}, "filters": 512, "kernel_size": [1, 1], "strides": [1, 1], "padding": "valid", "data_format": "channels_last", "dilation_rate": [1, 1], "groups": 1, "activation": "linear", "use_bias": true, "kernel_initializer": {"module": "keras.initializers", "class_name": "GlorotUniform", "config": {"seed": null}, "registered_name": null}, "bias_initializer": {"module": "keras.initializers", "class_name": "Zeros", "config": {}, "registered_name": null}, "kernel_regularizer": null, "bias_regularizer": null, "activity_regularizer": null, "kernel_constraint": null, "bias_constraint": null}, "name": "conv3_block3_3_conv", "inbound_nodes": [{"args": [{"class_name": "__keras_tensor__", "config": {"shape": [null, 38, 38, 128], "dtype": "float32", "keras_history": ["conv3_block3_2_relu", 0, 0]}}], "kwargs": {}}]}, {"class_name": "BatchNormalization", "config": {"name": "conv3_block3_3_bn", "trainable": false, "dtype": {"module": "keras", "class_name": "DTypePolicy", "config": {"name": "float32"}, "registered_name": null}, "axis": 3, "momentum": 0.99, "epsilon": 1.001e-05, "center": true, "scale": true, "beta_initializer": {"module": "keras.initializers", "class_name": "Zeros", "config": {}, "registered_name": null}, "gamma_initializer": {"module": "keras.initializers", "class_name": "Ones", "config": {}, "registered_name": null}, "moving_mean_initializer": {"module": "keras.initializers", "class_name": "Zeros", "config": {}, "registered_name": null}, "moving_variance_initializer": {"module": "keras.initializers", "class_name": "Ones", "config": {}, "registered_name": null}, "beta_regularizer": null, "gamma_regularizer": null, "beta_constraint": null, "gamma_constraint": null, "synchronized": false}, "name": "conv3_block3_3_bn", "inbound_nodes": [{"args": [{"class_name": "__keras_tensor__", "config": {"shape": [null, 38, 38, 512], "dtype": "float32", "keras_history": ["conv3_block3_3_conv", 0, 0]}}], "kwargs": {"mask": null}}]}, {"class_name": "Add", "config": {"name": "conv3_block3_add", "trainable": false, "dtype": {"module": "keras", "class_name": "DTypePolicy", "config": {"name": "float32"}, "registered_name": null}}, "name": "conv3_block3_add", "inbound_nodes": [{"args": [[{"class_name": "__keras_tensor__", "config": {"shape": [null, 38, 38, 512], "dtype": "float32", "keras_history": ["conv3_block2_out", 0, 0]}}, {"class_name": "__keras_tensor__", "config": {"shape": [null, 38, 38, 512], "dtype": "float32", "keras_history": ["conv3_block3_3_bn", 0, 0]}}]], "kwargs": {}}]}, {"class_name": "Activation", "config": {"name": "conv3_block3_out", "trainable": false, "dtype": {"module": "keras", "class_name": "DTypePolicy", "config": {"name": "float32"}, "registered_name": null}, "activation": "relu"}, "name": "conv3_block3_out", "inbound_nodes": [{"args": [{"class_name": "__keras_tensor__", "config": {"shape": [null, 38, 38, 512], "dtype": "float32", "keras_history": ["conv3_block3_add", 0, 0]}}], "kwargs": {}}]}, {"class_name": "Conv2D", "config": {"name": "conv3_block4_1_conv", "trainable": false, "dtype": {"module": "keras", "class_name": "DTypePolicy", "config": {"name": "float32"}, "registered_name": null}, "filters": 128, "kernel_size": [1, 1], "strides": [1, 1], "padding": "valid", "data_format": "channels_last", "dilation_rate": [1, 1], "groups": 1, "activation": "linear", "use_bias": true, "kernel_initializer": {"module": "keras.initializers", "class_name": "GlorotUniform", "config": {"seed": null}, "registered_name": null}, "bias_initializer": {"module": "keras.initializers", "class_name": "Zeros", "config": {}, "registered_name": null}, "kernel_regularizer": null, "bias_regularizer": null, "activity_regularizer": null, "kernel_constraint": null, "bias_constraint": null}, "name": "conv3_block4_1_conv", "inbound_nodes": [{"args": [{"class_name": "__keras_tensor__", "config": {"shape": [null, 38, 38, 512], "dtype": "float32", "keras_history": ["conv3_block3_out", 0, 0]}}], "kwargs": {}}]}, {"class_name": "BatchNormalization", "config": {"name": "conv3_block4_1_bn", "trainable": false, "dtype": {"module": "keras", "class_name": "DTypePolicy", "config": {"name": "float32"}, "registered_name": null}, "axis": 3, "momentum": 0.99, "epsilon": 1.001e-05, "center": true, "scale": true, "beta_initializer": {"module": "keras.initializers", "class_name": "Zeros", "config": {}, "registered_name": null}, "gamma_initializer": {"module": "keras.initializers", "class_name": "Ones", "config": {}, "registered_name": null}, "moving_mean_initializer": {"module": "keras.initializers", "class_name": "Zeros", "config": {}, "registered_name": null}, "moving_variance_initializer": {"module": "keras.initializers", "class_name": "Ones", "config": {}, "registered_name": null}, "beta_regularizer": null, "gamma_regularizer": null, "beta_constraint": null, "gamma_constraint": null, "synchronized": false}, "name": "conv3_block4_1_bn", "inbound_nodes": [{"args": [{"class_name": "__keras_tensor__", "config": {"shape": [null, 38, 38, 128], "dtype": "float32", "keras_history": ["conv3_block4_1_conv", 0, 0]}}], "kwargs": {"mask": null}}]}, {"class_name": "Activation", "config": {"name": "conv3_block4_1_relu", "trainable": false, "dtype": {"module": "keras", "class_name": "DTypePolicy", "config": {"name": "float32"}, "registered_name": null}, "activation": "relu"}, "name": "conv3_block4_1_relu", "inbound_nodes": [{"args": [{"class_name": "__keras_tensor__", "config": {"shape": [null, 38, 38, 128], "dtype": "float32", "keras_history": ["conv3_block4_1_bn", 0, 0]}}], "kwargs": {}}]}, {"class_name": "Conv2D", "config": {"name": "conv3_block4_2_conv", "trainable": false, "dtype": {"module": "keras", "class_name": "DTypePolicy", "config": {"name": "float32"}, "registered_name": null}, "filters": 128, "kernel_size": [3, 3], "strides": [1, 1], "padding": "same", "data_format": "channels_last", "dilation_rate": [1, 1], "groups": 1, "activation": "linear", "use_bias": true, "kernel_initializer": {"module": "keras.initializers", "class_name": "GlorotUniform", "config": {"seed": null}, "registered_name": null}, "bias_initializer": {"module": "keras.initializers", "class_name": "Zeros", "config": {}, "registered_name": null}, "kernel_regularizer": null, "bias_regularizer": null, "activity_regularizer": null, "kernel_constraint": null, "bias_constraint": null}, "name": "conv3_block4_2_conv", "inbound_nodes": [{"args": [{"class_name": "__keras_tensor__", "config": {"shape": [null, 38, 38, 128], "dtype": "float32", "keras_history": ["conv3_block4_1_relu", 0, 0]}}], "kwargs": {}}]}, {"class_name": "BatchNormalization", "config": {"name": "conv3_block4_2_bn", "trainable": false, "dtype": {"module": "keras", "class_name": "DTypePolicy", "config": {"name": "float32"}, "registered_name": null}, "axis": 3, "momentum": 0.99, "epsilon": 1.001e-05, "center": true, "scale": true, "beta_initializer": {"module": "keras.initializers", "class_name": "Zeros", "config": {}, "registered_name": null}, "gamma_initializer": {"module": "keras.initializers", "class_name": "Ones", "config": {}, "registered_name": null}, "moving_mean_initializer": {"module": "keras.initializers", "class_name": "Zeros", "config": {}, "registered_name": null}, "moving_variance_initializer": {"module": "keras.initializers", "class_name": "Ones", "config": {}, "registered_name": null}, "beta_regularizer": null, "gamma_regularizer": null, "beta_constraint": null, "gamma_constraint": null, "synchronized": false}, "name": "conv3_block4_2_bn", "inbound_nodes": [{"args": [{"class_name": "__keras_tensor__", "config": {"shape": [null, 38, 38, 128], "dtype": "float32", "keras_history": ["conv3_block4_2_conv", 0, 0]}}], "kwargs": {"mask": null}}]}, {"class_name": "Activation", "config": {"name": "conv3_block4_2_relu", "trainable": false, "dtype": {"module": "keras", "class_name": "DTypePolicy", "config": {"name": "float32"}, "registered_name": null}, "activation": "relu"}, "name": "conv3_block4_2_relu", "inbound_nodes": [{"args": [{"class_name": "__keras_tensor__", "config": {"shape": [null, 38, 38, 128], "dtype": "float32", "keras_history": ["conv3_block4_2_bn", 0, 0]}}], "kwargs": {}}]}, {"class_name": "Conv2D", "config": {"name": "conv3_block4_3_conv", "trainable": false, "dtype": {"module": "keras", "class_name": "DTypePolicy", "config": {"name": "float32"}, "registered_name": null}, "filters": 512, "kernel_size": [1, 1], "strides": [1, 1], "padding": "valid", "data_format": "channels_last", "dilation_rate": [1, 1], "groups": 1, "activation": "linear", "use_bias": true, "kernel_initializer": {"module": "keras.initializers", "class_name": "GlorotUniform", "config": {"seed": null}, "registered_name": null}, "bias_initializer": {"module": "keras.initializers", "class_name": "Zeros", "config": {}, "registered_name": null}, "kernel_regularizer": null, "bias_regularizer": null, "activity_regularizer": null, "kernel_constraint": null, "bias_constraint": null}, "name": "conv3_block4_3_conv", "inbound_nodes": [{"args": [{"class_name": "__keras_tensor__", "config": {"shape": [null, 38, 38, 128], "dtype": "float32", "keras_history": ["conv3_block4_2_relu", 0, 0]}}], "kwargs": {}}]}, {"class_name": "BatchNormalization", "config": {"name": "conv3_block4_3_bn", "trainable": false, "dtype": {"module": "keras", "class_name": "DTypePolicy", "config": {"name": "float32"}, "registered_name": null}, "axis": 3, "momentum": 0.99, "epsilon": 1.001e-05, "center": true, "scale": true, "beta_initializer": {"module": "keras.initializers", "class_name": "Zeros", "config": {}, "registered_name": null}, "gamma_initializer": {"module": "keras.initializers", "class_name": "Ones", "config": {}, "registered_name": null}, "moving_mean_initializer": {"module": "keras.initializers", "class_name": "Zeros", "config": {}, "registered_name": null}, "moving_variance_initializer": {"module": "keras.initializers", "class_name": "Ones", "config": {}, "registered_name": null}, "beta_regularizer": null, "gamma_regularizer": null, "beta_constraint": null, "gamma_constraint": null, "synchronized": false}, "name": "conv3_block4_3_bn", "inbound_nodes": [{"args": [{"class_name": "__keras_tensor__", "config": {"shape": [null, 38, 38, 512], "dtype": "float32", "keras_history": ["conv3_block4_3_conv", 0, 0]}}], "kwargs": {"mask": null}}]}, {"class_name": "Add", "config": {"name": "conv3_block4_add", "trainable": false, "dtype": {"module": "keras", "class_name": "DTypePolicy", "config": {"name": "float32"}, "registered_name": null}}, "name": "conv3_block4_add", "inbound_nodes": [{"args": [[{"class_name": "__keras_tensor__", "config": {"shape": [null, 38, 38, 512], "dtype": "float32", "keras_history": ["conv3_block3_out", 0, 0]}}, {"class_name": "__keras_tensor__", "config": {"shape": [null, 38, 38, 512], "dtype": "float32", "keras_history": ["conv3_block4_3_bn", 0, 0]}}]], "kwargs": {}}]}, {"class_name": "Activation", "config": {"name": "conv3_block4_out", "trainable": false, "dtype": {"module": "keras", "class_name": "DTypePolicy", "config": {"name": "float32"}, "registered_name": null}, "activation": "relu"}, "name": "conv3_block4_out", "inbound_nodes": [{"args": [{"class_name": "__keras_tensor__", "config": {"shape": [null, 38, 38, 512], "dtype": "float32", "keras_history": ["conv3_block4_add", 0, 0]}}], "kwargs": {}}]}, {"class_name": "Conv2D", "config": {"name": "conv4_block1_1_conv", "trainable": false, "dtype": {"module": "keras", "class_name": "DTypePolicy", "config": {"name": "float32"}, "registered_name": null}, "filters": 256, "kernel_size": [1, 1], "strides": [2, 2], "padding": "valid", "data_format": "channels_last", "dilation_rate": [1, 1], "groups": 1, "activation": "linear", "use_bias": true, "kernel_initializer": {"module": "keras.initializers", "class_name": "GlorotUniform", "config": {"seed": null}, "registered_name": null}, "bias_initializer": {"module": "keras.initializers", "class_name": "Zeros", "config": {}, "registered_name": null}, "kernel_regularizer": null, "bias_regularizer": null, "activity_regularizer": null, "kernel_constraint": null, "bias_constraint": null}, "name": "conv4_block1_1_conv", "inbound_nodes": [{"args": [{"class_name": "__keras_tensor__", "config": {"shape": [null, 38, 38, 512], "dtype": "float32", "keras_history": ["conv3_block4_out", 0, 0]}}], "kwargs": {}}]}, {"class_name": "BatchNormalization", "config": {"name": "conv4_block1_1_bn", "trainable": false, "dtype": {"module": "keras", "class_name": "DTypePolicy", "config": {"name": "float32"}, "registered_name": null}, "axis": 3, "momentum": 0.99, "epsilon": 1.001e-05, "center": true, "scale": true, "beta_initializer": {"module": "keras.initializers", "class_name": "Zeros", "config": {}, "registered_name": null}, "gamma_initializer": {"module": "keras.initializers", "class_name": "Ones", "config": {}, "registered_name": null}, "moving_mean_initializer": {"module": "keras.initializers", "class_name": "Zeros", "config": {}, "registered_name": null}, "moving_variance_initializer": {"module": "keras.initializers", "class_name": "Ones", "config": {}, "registered_name": null}, "beta_regularizer": null, "gamma_regularizer": null, "beta_constraint": null, "gamma_constraint": null, "synchronized": false}, "name": "conv4_block1_1_bn", "inbound_nodes": [{"args": [{"class_name": "__keras_tensor__", "config": {"shape": [null, 19, 19, 256], "dtype": "float32", "keras_history": ["conv4_block1_1_conv", 0, 0]}}], "kwargs": {"mask": null}}]}, {"class_name": "Activation", "config": {"name": "conv4_block1_1_relu", "trainable": false, "dtype": {"module": "keras", "class_name": "DTypePolicy", "config": {"name": "float32"}, "registered_name": null}, "activation": "relu"}, "name": "conv4_block1_1_relu", "inbound_nodes": [{"args": [{"class_name": "__keras_tensor__", "config": {"shape": [null, 19, 19, 256], "dtype": "float32", "keras_history": ["conv4_block1_1_bn", 0, 0]}}], "kwargs": {}}]}, {"class_name": "Conv2D", "config": {"name": "conv4_block1_2_conv", "trainable": false, "dtype": {"module": "keras", "class_name": "DTypePolicy", "config": {"name": "float32"}, "registered_name": null}, "filters": 256, "kernel_size": [3, 3], "strides": [1, 1], "padding": "same", "data_format": "channels_last", "dilation_rate": [1, 1], "groups": 1, "activation": "linear", "use_bias": true, "kernel_initializer": {"module": "keras.initializers", "class_name": "GlorotUniform", "config": {"seed": null}, "registered_name": null}, "bias_initializer": {"module": "keras.initializers", "class_name": "Zeros", "config": {}, "registered_name": null}, "kernel_regularizer": null, "bias_regularizer": null, "activity_regularizer": null, "kernel_constraint": null, "bias_constraint": null}, "name": "conv4_block1_2_conv", "inbound_nodes": [{"args": [{"class_name": "__keras_tensor__", "config": {"shape": [null, 19, 19, 256], "dtype": "float32", "keras_history": ["conv4_block1_1_relu", 0, 0]}}], "kwargs": {}}]}, {"class_name": "BatchNormalization", "config": {"name": "conv4_block1_2_bn", "trainable": false, "dtype": {"module": "keras", "class_name": "DTypePolicy", "config": {"name": "float32"}, "registered_name": null}, "axis": 3, "momentum": 0.99, "epsilon": 1.001e-05, "center": true, "scale": true, "beta_initializer": {"module": "keras.initializers", "class_name": "Zeros", "config": {}, "registered_name": null}, "gamma_initializer": {"module": "keras.initializers", "class_name": "Ones", "config": {}, "registered_name": null}, "moving_mean_initializer": {"module": "keras.initializers", "class_name": "Zeros", "config": {}, "registered_name": null}, "moving_variance_initializer": {"module": "keras.initializers", "class_name": "Ones", "config": {}, "registered_name": null}, "beta_regularizer": null, "gamma_regularizer": null, "beta_constraint": null, "gamma_constraint": null, "synchronized": false}, "name": "conv4_block1_2_bn", "inbound_nodes": [{"args": [{"class_name": "__keras_tensor__", "config": {"shape": [null, 19, 19, 256], "dtype": "float32", "keras_history": ["conv4_block1_2_conv", 0, 0]}}], "kwargs": {"mask": null}}]}, {"class_name": "Activation", "config": {"name": "conv4_block1_2_relu", "trainable": false, "dtype": {"module": "keras", "class_name": "DTypePolicy", "config": {"name": "float32"}, "registered_name": null}, "activation": "relu"}, "name": "conv4_block1_2_relu", "inbound_nodes": [{"args": [{"class_name": "__keras_tensor__", "config": {"shape": [null, 19, 19, 256], "dtype": "float32", "keras_history": ["conv4_block1_2_bn", 0, 0]}}], "kwargs": {}}]}, {"class_name": "Conv2D", "config": {"name": "conv4_block1_0_conv", "trainable": false, "dtype": {"module": "keras", "class_name": "DTypePolicy", "config": {"name": "float32"}, "registered_name": null}, "filters": 1024, "kernel_size": [1, 1], "strides": [2, 2], "padding": "valid", "data_format": "channels_last", "dilation_rate": [1, 1], "groups": 1, "activation": "linear", "use_bias": true, "kernel_initializer": {"module": "keras.initializers", "class_name": "GlorotUniform", "config": {"seed": null}, "registered_name": null}, "bias_initializer": {"module": "keras.initializers", "class_name": "Zeros", "config": {}, "registered_name": null}, "kernel_regularizer": null, "bias_regularizer": null, "activity_regularizer": null, "kernel_constraint": null, "bias_constraint": null}, "name": "conv4_block1_0_conv", "inbound_nodes": [{"args": [{"class_name": "__keras_tensor__", "config": {"shape": [null, 38, 38, 512], "dtype": "float32", "keras_history": ["conv3_block4_out", 0, 0]}}], "kwargs": {}}]}, {"class_name": "Conv2D", "config": {"name": "conv4_block1_3_conv", "trainable": false, "dtype": {"module": "keras", "class_name": "DTypePolicy", "config": {"name": "float32"}, "registered_name": null}, "filters": 1024, "kernel_size": [1, 1], "strides": [1, 1], "padding": "valid", "data_format": "channels_last", "dilation_rate": [1, 1], "groups": 1, "activation": "linear", "use_bias": true, "kernel_initializer": {"module": "keras.initializers", "class_name": "GlorotUniform", "config": {"seed": null}, "registered_name": null}, "bias_initializer": {"module": "keras.initializers", "class_name": "Zeros", "config": {}, "registered_name": null}, "kernel_regularizer": null, "bias_regularizer": null, "activity_regularizer": null, "kernel_constraint": null, "bias_constraint": null}, "name": "conv4_block1_3_conv", "inbound_nodes": [{"args": [{"class_name": "__keras_tensor__", "config": {"shape": [null, 19, 19, 256], "dtype": "float32", "keras_history": ["conv4_block1_2_relu", 0, 0]}}], "kwargs": {}}]}, {"class_name": "BatchNormalization", "config": {"name": "conv4_block1_0_bn", "trainable": false, "dtype": {"module": "keras", "class_name": "DTypePolicy", "config": {"name": "float32"}, "registered_name": null}, "axis": 3, "momentum": 0.99, "epsilon": 1.001e-05, "center": true, "scale": true, "beta_initializer": {"module": "keras.initializers", "class_name": "Zeros", "config": {}, "registered_name": null}, "gamma_initializer": {"module": "keras.initializers", "class_name": "Ones", "config": {}, "registered_name": null}, "moving_mean_initializer": {"module": "keras.initializers", "class_name": "Zeros", "config": {}, "registered_name": null}, "moving_variance_initializer": {"module": "keras.initializers", "class_name": "Ones", "config": {}, "registered_name": null}, "beta_regularizer": null, "gamma_regularizer": null, "beta_constraint": null, "gamma_constraint": null, "synchronized": false}, "name": "conv4_block1_0_bn", "inbound_nodes": [{"args": [{"class_name": "__keras_tensor__", "config": {"shape": [null, 19, 19, 1024], "dtype": "float32", "keras_history": ["conv4_block1_0_conv", 0, 0]}}], "kwargs": {"mask": null}}]}, {"class_name": "BatchNormalization", "config": {"name": "conv4_block1_3_bn", "trainable": false, "dtype": {"module": "keras", "class_name": "DTypePolicy", "config": {"name": "float32"}, "registered_name": null}, "axis": 3, "momentum": 0.99, "epsilon": 1.001e-05, "center": true, "scale": true, "beta_initializer": {"module": "keras.initializers", "class_name": "Zeros", "config": {}, "registered_name": null}, "gamma_initializer": {"module": "keras.initializers", "class_name": "Ones", "config": {}, "registered_name": null}, "moving_mean_initializer": {"module": "keras.initializers", "class_name": "Zeros", "config": {}, "registered_name": null}, "moving_variance_initializer": {"module": "keras.initializers", "class_name": "Ones", "config": {}, "registered_name": null}, "beta_regularizer": null, "gamma_regularizer": null, "beta_constraint": null, "gamma_constraint": null, "synchronized": false}, "name": "conv4_block1_3_bn", "inbound_nodes": [{"args": [{"class_name": "__keras_tensor__", "config": {"shape": [null, 19, 19, 1024], "dtype": "float32", "keras_history": ["conv4_block1_3_conv", 0, 0]}}], "kwargs": {"mask": null}}]}, {"class_name": "Add", "config": {"name": "conv4_block1_add", "trainable": false, "dtype": {"module": "keras", "class_name": "DTypePolicy", "config": {"name": "float32"}, "registered_name": null}}, "name": "conv4_block1_add", "inbound_nodes": [{"args": [[{"class_name": "__keras_tensor__", "config": {"shape": [null, 19, 19, 1024], "dtype": "float32", "keras_history": ["conv4_block1_0_bn", 0, 0]}}, {"class_name": "__keras_tensor__", "config": {"shape": [null, 19, 19, 1024], "dtype": "float32", "keras_history": ["conv4_block1_3_bn", 0, 0]}}]], "kwargs": {}}]}, {"class_name": "Activation", "config": {"name": "conv4_block1_out", "trainable": false, "dtype": {"module": "keras", "class_name": "DTypePolicy", "config": {"name": "float32"}, "registered_name": null}, "activation": "relu"}, "name": "conv4_block1_out", "inbound_nodes": [{"args": [{"class_name": "__keras_tensor__", "config": {"shape": [null, 19, 19, 1024], "dtype": "float32", "keras_history": ["conv4_block1_add", 0, 0]}}], "kwargs": {}}]}, {"class_name": "Conv2D", "config": {"name": "conv4_block2_1_conv", "trainable": false, "dtype": {"module": "keras", "class_name": "DTypePolicy", "config": {"name": "float32"}, "registered_name": null}, "filters": 256, "kernel_size": [1, 1], "strides": [1, 1], "padding": "valid", "data_format": "channels_last", "dilation_rate": [1, 1], "groups": 1, "activation": "linear", "use_bias": true, "kernel_initializer": {"module": "keras.initializers", "class_name": "GlorotUniform", "config": {"seed": null}, "registered_name": null}, "bias_initializer": {"module": "keras.initializers", "class_name": "Zeros", "config": {}, "registered_name": null}, "kernel_regularizer": null, "bias_regularizer": null, "activity_regularizer": null, "kernel_constraint": null, "bias_constraint": null}, "name": "conv4_block2_1_conv", "inbound_nodes": [{"args": [{"class_name": "__keras_tensor__", "config": {"shape": [null, 19, 19, 1024], "dtype": "float32", "keras_history": ["conv4_block1_out", 0, 0]}}], "kwargs": {}}]}, {"class_name": "BatchNormalization", "config": {"name": "conv4_block2_1_bn", "trainable": false, "dtype": {"module": "keras", "class_name": "DTypePolicy", "config": {"name": "float32"}, "registered_name": null}, "axis": 3, "momentum": 0.99, "epsilon": 1.001e-05, "center": true, "scale": true, "beta_initializer": {"module": "keras.initializers", "class_name": "Zeros", "config": {}, "registered_name": null}, "gamma_initializer": {"module": "keras.initializers", "class_name": "Ones", "config": {}, "registered_name": null}, "moving_mean_initializer": {"module": "keras.initializers", "class_name": "Zeros", "config": {}, "registered_name": null}, "moving_variance_initializer": {"module": "keras.initializers", "class_name": "Ones", "config": {}, "registered_name": null}, "beta_regularizer": null, "gamma_regularizer": null, "beta_constraint": null, "gamma_constraint": null, "synchronized": false}, "name": "conv4_block2_1_bn", "inbound_nodes": [{"args": [{"class_name": "__keras_tensor__", "config": {"shape": [null, 19, 19, 256], "dtype": "float32", "keras_history": ["conv4_block2_1_conv", 0, 0]}}], "kwargs": {"mask": null}}]}, {"class_name": "Activation", "config": {"name": "conv4_block2_1_relu", "trainable": false, "dtype": {"module": "keras", "class_name": "DTypePolicy", "config": {"name": "float32"}, "registered_name": null}, "activation": "relu"}, "name": "conv4_block2_1_relu", "inbound_nodes": [{"args": [{"class_name": "__keras_tensor__", "config": {"shape": [null, 19, 19, 256], "dtype": "float32", "keras_history": ["conv4_block2_1_bn", 0, 0]}}], "kwargs": {}}]}, {"class_name": "Conv2D", "config": {"name": "conv4_block2_2_conv", "trainable": false, "dtype": {"module": "keras", "class_name": "DTypePolicy", "config": {"name": "float32"}, "registered_name": null}, "filters": 256, "kernel_size": [3, 3], "strides": [1, 1], "padding": "same", "data_format": "channels_last", "dilation_rate": [1, 1], "groups": 1, "activation": "linear", "use_bias": true, "kernel_initializer": {"module": "keras.initializers", "class_name": "GlorotUniform", "config": {"seed": null}, "registered_name": null}, "bias_initializer": {"module": "keras.initializers", "class_name": "Zeros", "config": {}, "registered_name": null}, "kernel_regularizer": null, "bias_regularizer": null, "activity_regularizer": null, "kernel_constraint": null, "bias_constraint": null}, "name": "conv4_block2_2_conv", "inbound_nodes": [{"args": [{"class_name": "__keras_tensor__", "config": {"shape": [null, 19, 19, 256], "dtype": "float32", "keras_history": ["conv4_block2_1_relu", 0, 0]}}], "kwargs": {}}]}, {"class_name": "BatchNormalization", "config": {"name": "conv4_block2_2_bn", "trainable": false, "dtype": {"module": "keras", "class_name": "DTypePolicy", "config": {"name": "float32"}, "registered_name": null}, "axis": 3, "momentum": 0.99, "epsilon": 1.001e-05, "center": true, "scale": true, "beta_initializer": {"module": "keras.initializers", "class_name": "Zeros", "config": {}, "registered_name": null}, "gamma_initializer": {"module": "keras.initializers", "class_name": "Ones", "config": {}, "registered_name": null}, "moving_mean_initializer": {"module": "keras.initializers", "class_name": "Zeros", "config": {}, "registered_name": null}, "moving_variance_initializer": {"module": "keras.initializers", "class_name": "Ones", "config": {}, "registered_name": null}, "beta_regularizer": null, "gamma_regularizer": null, "beta_constraint": null, "gamma_constraint": null, "synchronized": false}, "name": "conv4_block2_2_bn", "inbound_nodes": [{"args": [{"class_name": "__keras_tensor__", "config": {"shape": [null, 19, 19, 256], "dtype": "float32", "keras_history": ["conv4_block2_2_conv", 0, 0]}}], "kwargs": {"mask": null}}]}, {"class_name": "Activation", "config": {"name": "conv4_block2_2_relu", "trainable": false, "dtype": {"module": "keras", "class_name": "DTypePolicy", "config": {"name": "float32"}, "registered_name": null}, "activation": "relu"}, "name": "conv4_block2_2_relu", "inbound_nodes": [{"args": [{"class_name": "__keras_tensor__", "config": {"shape": [null, 19, 19, 256], "dtype": "float32", "keras_history": ["conv4_block2_2_bn", 0, 0]}}], "kwargs": {}}]}, {"class_name": "Conv2D", "config": {"name": "conv4_block2_3_conv", "trainable": false, "dtype": {"module": "keras", "class_name": "DTypePolicy", "config": {"name": "float32"}, "registered_name": null}, "filters": 1024, "kernel_size": [1, 1], "strides": [1, 1], "padding": "valid", "data_format": "channels_last", "dilation_rate": [1, 1], "groups": 1, "activation": "linear", "use_bias": true, "kernel_initializer": {"module": "keras.initializers", "class_name": "GlorotUniform", "config": {"seed": null}, "registered_name": null}, "bias_initializer": {"module": "keras.initializers", "class_name": "Zeros", "config": {}, "registered_name": null}, "kernel_regularizer": null, "bias_regularizer": null, "activity_regularizer": null, "kernel_constraint": null, "bias_constraint": null}, "name": "conv4_block2_3_conv", "inbound_nodes": [{"args": [{"class_name": "__keras_tensor__", "config": {"shape": [null, 19, 19, 256], "dtype": "float32", "keras_history": ["conv4_block2_2_relu", 0, 0]}}], "kwargs": {}}]}, {"class_name": "BatchNormalization", "config": {"name": "conv4_block2_3_bn", "trainable": false, "dtype": {"module": "keras", "class_name": "DTypePolicy", "config": {"name": "float32"}, "registered_name": null}, "axis": 3, "momentum": 0.99, "epsilon": 1.001e-05, "center": true, "scale": true, "beta_initializer": {"module": "keras.initializers", "class_name": "Zeros", "config": {}, "registered_name": null}, "gamma_initializer": {"module": "keras.initializers", "class_name": "Ones", "config": {}, "registered_name": null}, "moving_mean_initializer": {"module": "keras.initializers", "class_name": "Zeros", "config": {}, "registered_name": null}, "moving_variance_initializer": {"module": "keras.initializers", "class_name": "Ones", "config": {}, "registered_name": null}, "beta_regularizer": null, "gamma_regularizer": null, "beta_constraint": null, "gamma_constraint": null, "synchronized": false}, "name": "conv4_block2_3_bn", "inbound_nodes": [{"args": [{"class_name": "__keras_tensor__", "config": {"shape": [null, 19, 19, 1024], "dtype": "float32", "keras_history": ["conv4_block2_3_conv", 0, 0]}}], "kwargs": {"mask": null}}]}, {"class_name": "Add", "config": {"name": "conv4_block2_add", "trainable": false, "dtype": {"module": "keras", "class_name": "DTypePolicy", "config": {"name": "float32"}, "registered_name": null}}, "name": "conv4_block2_add", "inbound_nodes": [{"args": [[{"class_name": "__keras_tensor__", "config": {"shape": [null, 19, 19, 1024], "dtype": "float32", "keras_history": ["conv4_block1_out", 0, 0]}}, {"class_name": "__keras_tensor__", "config": {"shape": [null, 19, 19, 1024], "dtype": "float32", "keras_history": ["conv4_block2_3_bn", 0, 0]}}]], "kwargs": {}}]}, {"class_name": "Activation", "config": {"name": "conv4_block2_out", "trainable": false, "dtype": {"module": "keras", "class_name": "DTypePolicy", "config": {"name": "float32"}, "registered_name": null}, "activation": "relu"}, "name": "conv4_block2_out", "inbound_nodes": [{"args": [{"class_name": "__keras_tensor__", "config": {"shape": [null, 19, 19, 1024], "dtype": "float32", "keras_history": ["conv4_block2_add", 0, 0]}}], "kwargs": {}}]}, {"class_name": "Conv2D", "config": {"name": "conv4_block3_1_conv", "trainable": false, "dtype": {"module": "keras", "class_name": "DTypePolicy", "config": {"name": "float32"}, "registered_name": null}, "filters": 256, "kernel_size": [1, 1], "strides": [1, 1], "padding": "valid", "data_format": "channels_last", "dilation_rate": [1, 1], "groups": 1, "activation": "linear", "use_bias": true, "kernel_initializer": {"module": "keras.initializers", "class_name": "GlorotUniform", "config": {"seed": null}, "registered_name": null}, "bias_initializer": {"module": "keras.initializers", "class_name": "Zeros", "config": {}, "registered_name": null}, "kernel_regularizer": null, "bias_regularizer": null, "activity_regularizer": null, "kernel_constraint": null, "bias_constraint": null}, "name": "conv4_block3_1_conv", "inbound_nodes": [{"args": [{"class_name": "__keras_tensor__", "config": {"shape": [null, 19, 19, 1024], "dtype": "float32", "keras_history": ["conv4_block2_out", 0, 0]}}], "kwargs": {}}]}, {"class_name": "BatchNormalization", "config": {"name": "conv4_block3_1_bn", "trainable": false, "dtype": {"module": "keras", "class_name": "DTypePolicy", "config": {"name": "float32"}, "registered_name": null}, "axis": 3, "momentum": 0.99, "epsilon": 1.001e-05, "center": true, "scale": true, "beta_initializer": {"module": "keras.initializers", "class_name": "Zeros", "config": {}, "registered_name": null}, "gamma_initializer": {"module": "keras.initializers", "class_name": "Ones", "config": {}, "registered_name": null}, "moving_mean_initializer": {"module": "keras.initializers", "class_name": "Zeros", "config": {}, "registered_name": null}, "moving_variance_initializer": {"module": "keras.initializers", "class_name": "Ones", "config": {}, "registered_name": null}, "beta_regularizer": null, "gamma_regularizer": null, "beta_constraint": null, "gamma_constraint": null, "synchronized": false}, "name": "conv4_block3_1_bn", "inbound_nodes": [{"args": [{"class_name": "__keras_tensor__", "config": {"shape": [null, 19, 19, 256], "dtype": "float32", "keras_history": ["conv4_block3_1_conv", 0, 0]}}], "kwargs": {"mask": null}}]}, {"class_name": "Activation", "config": {"name": "conv4_block3_1_relu", "trainable": false, "dtype": {"module": "keras", "class_name": "DTypePolicy", "config": {"name": "float32"}, "registered_name": null}, "activation": "relu"}, "name": "conv4_block3_1_relu", "inbound_nodes": [{"args": [{"class_name": "__keras_tensor__", "config": {"shape": [null, 19, 19, 256], "dtype": "float32", "keras_history": ["conv4_block3_1_bn", 0, 0]}}], "kwargs": {}}]}, {"class_name": "Conv2D", "config": {"name": "conv4_block3_2_conv", "trainable": false, "dtype": {"module": "keras", "class_name": "DTypePolicy", "config": {"name": "float32"}, "registered_name": null}, "filters": 256, "kernel_size": [3, 3], "strides": [1, 1], "padding": "same", "data_format": "channels_last", "dilation_rate": [1, 1], "groups": 1, "activation": "linear", "use_bias": true, "kernel_initializer": {"module": "keras.initializers", "class_name": "GlorotUniform", "config": {"seed": null}, "registered_name": null}, "bias_initializer": {"module": "keras.initializers", "class_name": "Zeros", "config": {}, "registered_name": null}, "kernel_regularizer": null, "bias_regularizer": null, "activity_regularizer": null, "kernel_constraint": null, "bias_constraint": null}, "name": "conv4_block3_2_conv", "inbound_nodes": [{"args": [{"class_name": "__keras_tensor__", "config": {"shape": [null, 19, 19, 256], "dtype": "float32", "keras_history": ["conv4_block3_1_relu", 0, 0]}}], "kwargs": {}}]}, {"class_name": "BatchNormalization", "config": {"name": "conv4_block3_2_bn", "trainable": false, "dtype": {"module": "keras", "class_name": "DTypePolicy", "config": {"name": "float32"}, "registered_name": null}, "axis": 3, "momentum": 0.99, "epsilon": 1.001e-05, "center": true, "scale": true, "beta_initializer": {"module": "keras.initializers", "class_name": "Zeros", "config": {}, "registered_name": null}, "gamma_initializer": {"module": "keras.initializers", "class_name": "Ones", "config": {}, "registered_name": null}, "moving_mean_initializer": {"module": "keras.initializers", "class_name": "Zeros", "config": {}, "registered_name": null}, "moving_variance_initializer": {"module": "keras.initializers", "class_name": "Ones", "config": {}, "registered_name": null}, "beta_regularizer": null, "gamma_regularizer": null, "beta_constraint": null, "gamma_constraint": null, "synchronized": false}, "name": "conv4_block3_2_bn", "inbound_nodes": [{"args": [{"class_name": "__keras_tensor__", "config": {"shape": [null, 19, 19, 256], "dtype": "float32", "keras_history": ["conv4_block3_2_conv", 0, 0]}}], "kwargs": {"mask": null}}]}, {"class_name": "Activation", "config": {"name": "conv4_block3_2_relu", "trainable": false, "dtype": {"module": "keras", "class_name": "DTypePolicy", "config": {"name": "float32"}, "registered_name": null}, "activation": "relu"}, "name": "conv4_block3_2_relu", "inbound_nodes": [{"args": [{"class_name": "__keras_tensor__", "config": {"shape": [null, 19, 19, 256], "dtype": "float32", "keras_history": ["conv4_block3_2_bn", 0, 0]}}], "kwargs": {}}]}, {"class_name": "Conv2D", "config": {"name": "conv4_block3_3_conv", "trainable": false, "dtype": {"module": "keras", "class_name": "DTypePolicy", "config": {"name": "float32"}, "registered_name": null}, "filters": 1024, "kernel_size": [1, 1], "strides": [1, 1], "padding": "valid", "data_format": "channels_last", "dilation_rate": [1, 1], "groups": 1, "activation": "linear", "use_bias": true, "kernel_initializer": {"module": "keras.initializers", "class_name": "GlorotUniform", "config": {"seed": null}, "registered_name": null}, "bias_initializer": {"module": "keras.initializers", "class_name": "Zeros", "config": {}, "registered_name": null}, "kernel_regularizer": null, "bias_regularizer": null, "activity_regularizer": null, "kernel_constraint": null, "bias_constraint": null}, "name": "conv4_block3_3_conv", "inbound_nodes": [{"args": [{"class_name": "__keras_tensor__", "config": {"shape": [null, 19, 19, 256], "dtype": "float32", "keras_history": ["conv4_block3_2_relu", 0, 0]}}], "kwargs": {}}]}, {"class_name": "BatchNormalization", "config": {"name": "conv4_block3_3_bn", "trainable": false, "dtype": {"module": "keras", "class_name": "DTypePolicy", "config": {"name": "float32"}, "registered_name": null}, "axis": 3, "momentum": 0.99, "epsilon": 1.001e-05, "center": true, "scale": true, "beta_initializer": {"module": "keras.initializers", "class_name": "Zeros", "config": {}, "registered_name": null}, "gamma_initializer": {"module": "keras.initializers", "class_name": "Ones", "config": {}, "registered_name": null}, "moving_mean_initializer": {"module": "keras.initializers", "class_name": "Zeros", "config": {}, "registered_name": null}, "moving_variance_initializer": {"module": "keras.initializers", "class_name": "Ones", "config": {}, "registered_name": null}, "beta_regularizer": null, "gamma_regularizer": null, "beta_constraint": null, "gamma_constraint": null, "synchronized": false}, "name": "conv4_block3_3_bn", "inbound_nodes": [{"args": [{"class_name": "__keras_tensor__", "config": {"shape": [null, 19, 19, 1024], "dtype": "float32", "keras_history": ["conv4_block3_3_conv", 0, 0]}}], "kwargs": {"mask": null}}]}, {"class_name": "Add", "config": {"name": "conv4_block3_add", "trainable": false, "dtype": {"module": "keras", "class_name": "DTypePolicy", "config": {"name": "float32"}, "registered_name": null}}, "name": "conv4_block3_add", "inbound_nodes": [{"args": [[{"class_name": "__keras_tensor__", "config": {"shape": [null, 19, 19, 1024], "dtype": "float32", "keras_history": ["conv4_block2_out", 0, 0]}}, {"class_name": "__keras_tensor__", "config": {"shape": [null, 19, 19, 1024], "dtype": "float32", "keras_history": ["conv4_block3_3_bn", 0, 0]}}]], "kwargs": {}}]}, {"class_name": "Activation", "config": {"name": "conv4_block3_out", "trainable": false, "dtype": {"module": "keras", "class_name": "DTypePolicy", "config": {"name": "float32"}, "registered_name": null}, "activation": "relu"}, "name": "conv4_block3_out", "inbound_nodes": [{"args": [{"class_name": "__keras_tensor__", "config": {"shape": [null, 19, 19, 1024], "dtype": "float32", "keras_history": ["conv4_block3_add", 0, 0]}}], "kwargs": {}}]}, {"class_name": "Conv2D", "config": {"name": "conv4_block4_1_conv", "trainable": false, "dtype": {"module": "keras", "class_name": "DTypePolicy", "config": {"name": "float32"}, "registered_name": null}, "filters": 256, "kernel_size": [1, 1], "strides": [1, 1], "padding": "valid", "data_format": "channels_last", "dilation_rate": [1, 1], "groups": 1, "activation": "linear", "use_bias": true, "kernel_initializer": {"module": "keras.initializers", "class_name": "GlorotUniform", "config": {"seed": null}, "registered_name": null}, "bias_initializer": {"module": "keras.initializers", "class_name": "Zeros", "config": {}, "registered_name": null}, "kernel_regularizer": null, "bias_regularizer": null, "activity_regularizer": null, "kernel_constraint": null, "bias_constraint": null}, "name": "conv4_block4_1_conv", "inbound_nodes": [{"args": [{"class_name": "__keras_tensor__", "config": {"shape": [null, 19, 19, 1024], "dtype": "float32", "keras_history": ["conv4_block3_out", 0, 0]}}], "kwargs": {}}]}, {"class_name": "BatchNormalization", "config": {"name": "conv4_block4_1_bn", "trainable": false, "dtype": {"module": "keras", "class_name": "DTypePolicy", "config": {"name": "float32"}, "registered_name": null}, "axis": 3, "momentum": 0.99, "epsilon": 1.001e-05, "center": true, "scale": true, "beta_initializer": {"module": "keras.initializers", "class_name": "Zeros", "config": {}, "registered_name": null}, "gamma_initializer": {"module": "keras.initializers", "class_name": "Ones", "config": {}, "registered_name": null}, "moving_mean_initializer": {"module": "keras.initializers", "class_name": "Zeros", "config": {}, "registered_name": null}, "moving_variance_initializer": {"module": "keras.initializers", "class_name": "Ones", "config": {}, "registered_name": null}, "beta_regularizer": null, "gamma_regularizer": null, "beta_constraint": null, "gamma_constraint": null, "synchronized": false}, "name": "conv4_block4_1_bn", "inbound_nodes": [{"args": [{"class_name": "__keras_tensor__", "config": {"shape": [null, 19, 19, 256], "dtype": "float32", "keras_history": ["conv4_block4_1_conv", 0, 0]}}], "kwargs": {"mask": null}}]}, {"class_name": "Activation", "config": {"name": "conv4_block4_1_relu", "trainable": false, "dtype": {"module": "keras", "class_name": "DTypePolicy", "config": {"name": "float32"}, "registered_name": null}, "activation": "relu"}, "name": "conv4_block4_1_relu", "inbound_nodes": [{"args": [{"class_name": "__keras_tensor__", "config": {"shape": [null, 19, 19, 256], "dtype": "float32", "keras_history": ["conv4_block4_1_bn", 0, 0]}}], "kwargs": {}}]}, {"class_name": "Conv2D", "config": {"name": "conv4_block4_2_conv", "trainable": false, "dtype": {"module": "keras", "class_name": "DTypePolicy", "config": {"name": "float32"}, "registered_name": null}, "filters": 256, "kernel_size": [3, 3], "strides": [1, 1], "padding": "same", "data_format": "channels_last", "dilation_rate": [1, 1], "groups": 1, "activation": "linear", "use_bias": true, "kernel_initializer": {"module": "keras.initializers", "class_name": "GlorotUniform", "config": {"seed": null}, "registered_name": null}, "bias_initializer": {"module": "keras.initializers", "class_name": "Zeros", "config": {}, "registered_name": null}, "kernel_regularizer": null, "bias_regularizer": null, "activity_regularizer": null, "kernel_constraint": null, "bias_constraint": null}, "name": "conv4_block4_2_conv", "inbound_nodes": [{"args": [{"class_name": "__keras_tensor__", "config": {"shape": [null, 19, 19, 256], "dtype": "float32", "keras_history": ["conv4_block4_1_relu", 0, 0]}}], "kwargs": {}}]}, {"class_name": "BatchNormalization", "config": {"name": "conv4_block4_2_bn", "trainable": false, "dtype": {"module": "keras", "class_name": "DTypePolicy", "config": {"name": "float32"}, "registered_name": null}, "axis": 3, "momentum": 0.99, "epsilon": 1.001e-05, "center": true, "scale": true, "beta_initializer": {"module": "keras.initializers", "class_name": "Zeros", "config": {}, "registered_name": null}, "gamma_initializer": {"module": "keras.initializers", "class_name": "Ones", "config": {}, "registered_name": null}, "moving_mean_initializer": {"module": "keras.initializers", "class_name": "Zeros", "config": {}, "registered_name": null}, "moving_variance_initializer": {"module": "keras.initializers", "class_name": "Ones", "config": {}, "registered_name": null}, "beta_regularizer": null, "gamma_regularizer": null, "beta_constraint": null, "gamma_constraint": null, "synchronized": false}, "name": "conv4_block4_2_bn", "inbound_nodes": [{"args": [{"class_name": "__keras_tensor__", "config": {"shape": [null, 19, 19, 256], "dtype": "float32", "keras_history": ["conv4_block4_2_conv", 0, 0]}}], "kwargs": {"mask": null}}]}, {"class_name": "Activation", "config": {"name": "conv4_block4_2_relu", "trainable": false, "dtype": {"module": "keras", "class_name": "DTypePolicy", "config": {"name": "float32"}, "registered_name": null}, "activation": "relu"}, "name": "conv4_block4_2_relu", "inbound_nodes": [{"args": [{"class_name": "__keras_tensor__", "config": {"shape": [null, 19, 19, 256], "dtype": "float32", "keras_history": ["conv4_block4_2_bn", 0, 0]}}], "kwargs": {}}]}, {"class_name": "Conv2D", "config": {"name": "conv4_block4_3_conv", "trainable": false, "dtype": {"module": "keras", "class_name": "DTypePolicy", "config": {"name": "float32"}, "registered_name": null}, "filters": 1024, "kernel_size": [1, 1], "strides": [1, 1], "padding": "valid", "data_format": "channels_last", "dilation_rate": [1, 1], "groups": 1, "activation": "linear", "use_bias": true, "kernel_initializer": {"module": "keras.initializers", "class_name": "GlorotUniform", "config": {"seed": null}, "registered_name": null}, "bias_initializer": {"module": "keras.initializers", "class_name": "Zeros", "config": {}, "registered_name": null}, "kernel_regularizer": null, "bias_regularizer": null, "activity_regularizer": null, "kernel_constraint": null, "bias_constraint": null}, "name": "conv4_block4_3_conv", "inbound_nodes": [{"args": [{"class_name": "__keras_tensor__", "config": {"shape": [null, 19, 19, 256], "dtype": "float32", "keras_history": ["conv4_block4_2_relu", 0, 0]}}], "kwargs": {}}]}, {"class_name": "BatchNormalization", "config": {"name": "conv4_block4_3_bn", "trainable": false, "dtype": {"module": "keras", "class_name": "DTypePolicy", "config": {"name": "float32"}, "registered_name": null}, "axis": 3, "momentum": 0.99, "epsilon": 1.001e-05, "center": true, "scale": true, "beta_initializer": {"module": "keras.initializers", "class_name": "Zeros", "config": {}, "registered_name": null}, "gamma_initializer": {"module": "keras.initializers", "class_name": "Ones", "config": {}, "registered_name": null}, "moving_mean_initializer": {"module": "keras.initializers", "class_name": "Zeros", "config": {}, "registered_name": null}, "moving_variance_initializer": {"module": "keras.initializers", "class_name": "Ones", "config": {}, "registered_name": null}, "beta_regularizer": null, "gamma_regularizer": null, "beta_constraint": null, "gamma_constraint": null, "synchronized": false}, "name": "conv4_block4_3_bn", "inbound_nodes": [{"args": [{"class_name": "__keras_tensor__", "config": {"shape": [null, 19, 19, 1024], "dtype": "float32", "keras_history": ["conv4_block4_3_conv", 0, 0]}}], "kwargs": {"mask": null}}]}, {"class_name": "Add", "config": {"name": "conv4_block4_add", "trainable": false, "dtype": {"module": "keras", "class_name": "DTypePolicy", "config": {"name": "float32"}, "registered_name": null}}, "name": "conv4_block4_add", "inbound_nodes": [{"args": [[{"class_name": "__keras_tensor__", "config": {"shape": [null, 19, 19, 1024], "dtype": "float32", "keras_history": ["conv4_block3_out", 0, 0]}}, {"class_name": "__keras_tensor__", "config": {"shape": [null, 19, 19, 1024], "dtype": "float32", "keras_history": ["conv4_block4_3_bn", 0, 0]}}]], "kwargs": {}}]}, {"class_name": "Activation", "config": {"name": "conv4_block4_out", "trainable": false, "dtype": {"module": "keras", "class_name": "DTypePolicy", "config": {"name": "float32"}, "registered_name": null}, "activation": "relu"}, "name": "conv4_block4_out", "inbound_nodes": [{"args": [{"class_name": "__keras_tensor__", "config": {"shape": [null, 19, 19, 1024], "dtype": "float32", "keras_history": ["conv4_block4_add", 0, 0]}}], "kwargs": {}}]}, {"class_name": "Conv2D", "config": {"name": "conv4_block5_1_conv", "trainable": false, "dtype": {"module": "keras", "class_name": "DTypePolicy", "config": {"name": "float32"}, "registered_name": null}, "filters": 256, "kernel_size": [1, 1], "strides": [1, 1], "padding": "valid", "data_format": "channels_last", "dilation_rate": [1, 1], "groups": 1, "activation": "linear", "use_bias": true, "kernel_initializer": {"module": "keras.initializers", "class_name": "GlorotUniform", "config": {"seed": null}, "registered_name": null}, "bias_initializer": {"module": "keras.initializers", "class_name": "Zeros", "config": {}, "registered_name": null}, "kernel_regularizer": null, "bias_regularizer": null, "activity_regularizer": null, "kernel_constraint": null, "bias_constraint": null}, "name": "conv4_block5_1_conv", "inbound_nodes": [{"args": [{"class_name": "__keras_tensor__", "config": {"shape": [null, 19, 19, 1024], "dtype": "float32", "keras_history": ["conv4_block4_out", 0, 0]}}], "kwargs": {}}]}, {"class_name": "BatchNormalization", "config": {"name": "conv4_block5_1_bn", "trainable": false, "dtype": {"module": "keras", "class_name": "DTypePolicy", "config": {"name": "float32"}, "registered_name": null}, "axis": 3, "momentum": 0.99, "epsilon": 1.001e-05, "center": true, "scale": true, "beta_initializer": {"module": "keras.initializers", "class_name": "Zeros", "config": {}, "registered_name": null}, "gamma_initializer": {"module": "keras.initializers", "class_name": "Ones", "config": {}, "registered_name": null}, "moving_mean_initializer": {"module": "keras.initializers", "class_name": "Zeros", "config": {}, "registered_name": null}, "moving_variance_initializer": {"module": "keras.initializers", "class_name": "Ones", "config": {}, "registered_name": null}, "beta_regularizer": null, "gamma_regularizer": null, "beta_constraint": null, "gamma_constraint": null, "synchronized": false}, "name": "conv4_block5_1_bn", "inbound_nodes": [{"args": [{"class_name": "__keras_tensor__", "config": {"shape": [null, 19, 19, 256], "dtype": "float32", "keras_history": ["conv4_block5_1_conv", 0, 0]}}], "kwargs": {"mask": null}}]}, {"class_name": "Activation", "config": {"name": "conv4_block5_1_relu", "trainable": false, "dtype": {"module": "keras", "class_name": "DTypePolicy", "config": {"name": "float32"}, "registered_name": null}, "activation": "relu"}, "name": "conv4_block5_1_relu", "inbound_nodes": [{"args": [{"class_name": "__keras_tensor__", "config": {"shape": [null, 19, 19, 256], "dtype": "float32", "keras_history": ["conv4_block5_1_bn", 0, 0]}}], "kwargs": {}}]}, {"class_name": "Conv2D", "config": {"name": "conv4_block5_2_conv", "trainable": false, "dtype": {"module": "keras", "class_name": "DTypePolicy", "config": {"name": "float32"}, "registered_name": null}, "filters": 256, "kernel_size": [3, 3], "strides": [1, 1], "padding": "same", "data_format": "channels_last", "dilation_rate": [1, 1], "groups": 1, "activation": "linear", "use_bias": true, "kernel_initializer": {"module": "keras.initializers", "class_name": "GlorotUniform", "config": {"seed": null}, "registered_name": null}, "bias_initializer": {"module": "keras.initializers", "class_name": "Zeros", "config": {}, "registered_name": null}, "kernel_regularizer": null, "bias_regularizer": null, "activity_regularizer": null, "kernel_constraint": null, "bias_constraint": null}, "name": "conv4_block5_2_conv", "inbound_nodes": [{"args": [{"class_name": "__keras_tensor__", "config": {"shape": [null, 19, 19, 256], "dtype": "float32", "keras_history": ["conv4_block5_1_relu", 0, 0]}}], "kwargs": {}}]}, {"class_name": "BatchNormalization", "config": {"name": "conv4_block5_2_bn", "trainable": false, "dtype": {"module": "keras", "class_name": "DTypePolicy", "config": {"name": "float32"}, "registered_name": null}, "axis": 3, "momentum": 0.99, "epsilon": 1.001e-05, "center": true, "scale": true, "beta_initializer": {"module": "keras.initializers", "class_name": "Zeros", "config": {}, "registered_name": null}, "gamma_initializer": {"module": "keras.initializers", "class_name": "Ones", "config": {}, "registered_name": null}, "moving_mean_initializer": {"module": "keras.initializers", "class_name": "Zeros", "config": {}, "registered_name": null}, "moving_variance_initializer": {"module": "keras.initializers", "class_name": "Ones", "config": {}, "registered_name": null}, "beta_regularizer": null, "gamma_regularizer": null, "beta_constraint": null, "gamma_constraint": null, "synchronized": false}, "name": "conv4_block5_2_bn", "inbound_nodes": [{"args": [{"class_name": "__keras_tensor__", "config": {"shape": [null, 19, 19, 256], "dtype": "float32", "keras_history": ["conv4_block5_2_conv", 0, 0]}}], "kwargs": {"mask": null}}]}, {"class_name": "Activation", "config": {"name": "conv4_block5_2_relu", "trainable": false, "dtype": {"module": "keras", "class_name": "DTypePolicy", "config": {"name": "float32"}, "registered_name": null}, "activation": "relu"}, "name": "conv4_block5_2_relu", "inbound_nodes": [{"args": [{"class_name": "__keras_tensor__", "config": {"shape": [null, 19, 19, 256], "dtype": "float32", "keras_history": ["conv4_block5_2_bn", 0, 0]}}], "kwargs": {}}]}, {"class_name": "Conv2D", "config": {"name": "conv4_block5_3_conv", "trainable": false, "dtype": {"module": "keras", "class_name": "DTypePolicy", "config": {"name": "float32"}, "registered_name": null}, "filters": 1024, "kernel_size": [1, 1], "strides": [1, 1], "padding": "valid", "data_format": "channels_last", "dilation_rate": [1, 1], "groups": 1, "activation": "linear", "use_bias": true, "kernel_initializer": {"module": "keras.initializers", "class_name": "GlorotUniform", "config": {"seed": null}, "registered_name": null}, "bias_initializer": {"module": "keras.initializers", "class_name": "Zeros", "config": {}, "registered_name": null}, "kernel_regularizer": null, "bias_regularizer": null, "activity_regularizer": null, "kernel_constraint": null, "bias_constraint": null}, "name": "conv4_block5_3_conv", "inbound_nodes": [{"args": [{"class_name": "__keras_tensor__", "config": {"shape": [null, 19, 19, 256], "dtype": "float32", "keras_history": ["conv4_block5_2_relu", 0, 0]}}], "kwargs": {}}]}, {"class_name": "BatchNormalization", "config": {"name": "conv4_block5_3_bn", "trainable": false, "dtype": {"module": "keras", "class_name": "DTypePolicy", "config": {"name": "float32"}, "registered_name": null}, "axis": 3, "momentum": 0.99, "epsilon": 1.001e-05, "center": true, "scale": true, "beta_initializer": {"module": "keras.initializers", "class_name": "Zeros", "config": {}, "registered_name": null}, "gamma_initializer": {"module": "keras.initializers", "class_name": "Ones", "config": {}, "registered_name": null}, "moving_mean_initializer": {"module": "keras.initializers", "class_name": "Zeros", "config": {}, "registered_name": null}, "moving_variance_initializer": {"module": "keras.initializers", "class_name": "Ones", "config": {}, "registered_name": null}, "beta_regularizer": null, "gamma_regularizer": null, "beta_constraint": null, "gamma_constraint": null, "synchronized": false}, "name": "conv4_block5_3_bn", "inbound_nodes": [{"args": [{"class_name": "__keras_tensor__", "config": {"shape": [null, 19, 19, 1024], "dtype": "float32", "keras_history": ["conv4_block5_3_conv", 0, 0]}}], "kwargs": {"mask": null}}]}, {"class_name": "Add", "config": {"name": "conv4_block5_add", "trainable": false, "dtype": {"module": "keras", "class_name": "DTypePolicy", "config": {"name": "float32"}, "registered_name": null}}, "name": "conv4_block5_add", "inbound_nodes": [{"args": [[{"class_name": "__keras_tensor__", "config": {"shape": [null, 19, 19, 1024], "dtype": "float32", "keras_history": ["conv4_block4_out", 0, 0]}}, {"class_name": "__keras_tensor__", "config": {"shape": [null, 19, 19, 1024], "dtype": "float32", "keras_history": ["conv4_block5_3_bn", 0, 0]}}]], "kwargs": {}}]}, {"class_name": "Activation", "config": {"name": "conv4_block5_out", "trainable": false, "dtype": {"module": "keras", "class_name": "DTypePolicy", "config": {"name": "float32"}, "registered_name": null}, "activation": "relu"}, "name": "conv4_block5_out", "inbound_nodes": [{"args": [{"class_name": "__keras_tensor__", "config": {"shape": [null, 19, 19, 1024], "dtype": "float32", "keras_history": ["conv4_block5_add", 0, 0]}}], "kwargs": {}}]}, {"class_name": "Conv2D", "config": {"name": "conv4_block6_1_conv", "trainable": false, "dtype": {"module": "keras", "class_name": "DTypePolicy", "config": {"name": "float32"}, "registered_name": null}, "filters": 256, "kernel_size": [1, 1], "strides": [1, 1], "padding": "valid", "data_format": "channels_last", "dilation_rate": [1, 1], "groups": 1, "activation": "linear", "use_bias": true, "kernel_initializer": {"module": "keras.initializers", "class_name": "GlorotUniform", "config": {"seed": null}, "registered_name": null}, "bias_initializer": {"module": "keras.initializers", "class_name": "Zeros", "config": {}, "registered_name": null}, "kernel_regularizer": null, "bias_regularizer": null, "activity_regularizer": null, "kernel_constraint": null, "bias_constraint": null}, "name": "conv4_block6_1_conv", "inbound_nodes": [{"args": [{"class_name": "__keras_tensor__", "config": {"shape": [null, 19, 19, 1024], "dtype": "float32", "keras_history": ["conv4_block5_out", 0, 0]}}], "kwargs": {}}]}, {"class_name": "BatchNormalization", "config": {"name": "conv4_block6_1_bn", "trainable": false, "dtype": {"module": "keras", "class_name": "DTypePolicy", "config": {"name": "float32"}, "registered_name": null}, "axis": 3, "momentum": 0.99, "epsilon": 1.001e-05, "center": true, "scale": true, "beta_initializer": {"module": "keras.initializers", "class_name": "Zeros", "config": {}, "registered_name": null}, "gamma_initializer": {"module": "keras.initializers", "class_name": "Ones", "config": {}, "registered_name": null}, "moving_mean_initializer": {"module": "keras.initializers", "class_name": "Zeros", "config": {}, "registered_name": null}, "moving_variance_initializer": {"module": "keras.initializers", "class_name": "Ones", "config": {}, "registered_name": null}, "beta_regularizer": null, "gamma_regularizer": null, "beta_constraint": null, "gamma_constraint": null, "synchronized": false}, "name": "conv4_block6_1_bn", "inbound_nodes": [{"args": [{"class_name": "__keras_tensor__", "config": {"shape": [null, 19, 19, 256], "dtype": "float32", "keras_history": ["conv4_block6_1_conv", 0, 0]}}], "kwargs": {"mask": null}}]}, {"class_name": "Activation", "config": {"name": "conv4_block6_1_relu", "trainable": false, "dtype": {"module": "keras", "class_name": "DTypePolicy", "config": {"name": "float32"}, "registered_name": null}, "activation": "relu"}, "name": "conv4_block6_1_relu", "inbound_nodes": [{"args": [{"class_name": "__keras_tensor__", "config": {"shape": [null, 19, 19, 256], "dtype": "float32", "keras_history": ["conv4_block6_1_bn", 0, 0]}}], "kwargs": {}}]}, {"class_name": "Conv2D", "config": {"name": "conv4_block6_2_conv", "trainable": false, "dtype": {"module": "keras", "class_name": "DTypePolicy", "config": {"name": "float32"}, "registered_name": null}, "filters": 256, "kernel_size": [3, 3], "strides": [1, 1], "padding": "same", "data_format": "channels_last", "dilation_rate": [1, 1], "groups": 1, "activation": "linear", "use_bias": true, "kernel_initializer": {"module": "keras.initializers", "class_name": "GlorotUniform", "config": {"seed": null}, "registered_name": null}, "bias_initializer": {"module": "keras.initializers", "class_name": "Zeros", "config": {}, "registered_name": null}, "kernel_regularizer": null, "bias_regularizer": null, "activity_regularizer": null, "kernel_constraint": null, "bias_constraint": null}, "name": "conv4_block6_2_conv", "inbound_nodes": [{"args": [{"class_name": "__keras_tensor__", "config": {"shape": [null, 19, 19, 256], "dtype": "float32", "keras_history": ["conv4_block6_1_relu", 0, 0]}}], "kwargs": {}}]}, {"class_name": "BatchNormalization", "config": {"name": "conv4_block6_2_bn", "trainable": false, "dtype": {"module": "keras", "class_name": "DTypePolicy", "config": {"name": "float32"}, "registered_name": null}, "axis": 3, "momentum": 0.99, "epsilon": 1.001e-05, "center": true, "scale": true, "beta_initializer": {"module": "keras.initializers", "class_name": "Zeros", "config": {}, "registered_name": null}, "gamma_initializer": {"module": "keras.initializers", "class_name": "Ones", "config": {}, "registered_name": null}, "moving_mean_initializer": {"module": "keras.initializers", "class_name": "Zeros", "config": {}, "registered_name": null}, "moving_variance_initializer": {"module": "keras.initializers", "class_name": "Ones", "config": {}, "registered_name": null}, "beta_regularizer": null, "gamma_regularizer": null, "beta_constraint": null, "gamma_constraint": null, "synchronized": false}, "name": "conv4_block6_2_bn", "inbound_nodes": [{"args": [{"class_name": "__keras_tensor__", "config": {"shape": [null, 19, 19, 256], "dtype": "float32", "keras_history": ["conv4_block6_2_conv", 0, 0]}}], "kwargs": {"mask": null}}]}, {"class_name": "Activation", "config": {"name": "conv4_block6_2_relu", "trainable": false, "dtype": {"module": "keras", "class_name": "DTypePolicy", "config": {"name": "float32"}, "registered_name": null}, "activation": "relu"}, "name": "conv4_block6_2_relu", "inbound_nodes": [{"args": [{"class_name": "__keras_tensor__", "config": {"shape": [null, 19, 19, 256], "dtype": "float32", "keras_history": ["conv4_block6_2_bn", 0, 0]}}], "kwargs": {}}]}, {"class_name": "Conv2D", "config": {"name": "conv4_block6_3_conv", "trainable": false, "dtype": {"module": "keras", "class_name": "DTypePolicy", "config": {"name": "float32"}, "registered_name": null}, "filters": 1024, "kernel_size": [1, 1], "strides": [1, 1], "padding": "valid", "data_format": "channels_last", "dilation_rate": [1, 1], "groups": 1, "activation": "linear", "use_bias": true, "kernel_initializer": {"module": "keras.initializers", "class_name": "GlorotUniform", "config": {"seed": null}, "registered_name": null}, "bias_initializer": {"module": "keras.initializers", "class_name": "Zeros", "config": {}, "registered_name": null}, "kernel_regularizer": null, "bias_regularizer": null, "activity_regularizer": null, "kernel_constraint": null, "bias_constraint": null}, "name": "conv4_block6_3_conv", "inbound_nodes": [{"args": [{"class_name": "__keras_tensor__", "config": {"shape": [null, 19, 19, 256], "dtype": "float32", "keras_history": ["conv4_block6_2_relu", 0, 0]}}], "kwargs": {}}]}, {"class_name": "BatchNormalization", "config": {"name": "conv4_block6_3_bn", "trainable": false, "dtype": {"module": "keras", "class_name": "DTypePolicy", "config": {"name": "float32"}, "registered_name": null}, "axis": 3, "momentum": 0.99, "epsilon": 1.001e-05, "center": true, "scale": true, "beta_initializer": {"module": "keras.initializers", "class_name": "Zeros", "config": {}, "registered_name": null}, "gamma_initializer": {"module": "keras.initializers", "class_name": "Ones", "config": {}, "registered_name": null}, "moving_mean_initializer": {"module": "keras.initializers", "class_name": "Zeros", "config": {}, "registered_name": null}, "moving_variance_initializer": {"module": "keras.initializers", "class_name": "Ones", "config": {}, "registered_name": null}, "beta_regularizer": null, "gamma_regularizer": null, "beta_constraint": null, "gamma_constraint": null, "synchronized": false}, "name": "conv4_block6_3_bn", "inbound_nodes": [{"args": [{"class_name": "__keras_tensor__", "config": {"shape": [null, 19, 19, 1024], "dtype": "float32", "keras_history": ["conv4_block6_3_conv", 0, 0]}}], "kwargs": {"mask": null}}]}, {"class_name": "Add", "config": {"name": "conv4_block6_add", "trainable": false, "dtype": {"module": "keras", "class_name": "DTypePolicy", "config": {"name": "float32"}, "registered_name": null}}, "name": "conv4_block6_add", "inbound_nodes": [{"args": [[{"class_name": "__keras_tensor__", "config": {"shape": [null, 19, 19, 1024], "dtype": "float32", "keras_history": ["conv4_block5_out", 0, 0]}}, {"class_name": "__keras_tensor__", "config": {"shape": [null, 19, 19, 1024], "dtype": "float32", "keras_history": ["conv4_block6_3_bn", 0, 0]}}]], "kwargs": {}}]}, {"class_name": "Activation", "config": {"name": "conv4_block6_out", "trainable": false, "dtype": {"module": "keras", "class_name": "DTypePolicy", "config": {"name": "float32"}, "registered_name": null}, "activation": "relu"}, "name": "conv4_block6_out", "inbound_nodes": [{"args": [{"class_name": "__keras_tensor__", "config": {"shape": [null, 19, 19, 1024], "dtype": "float32", "keras_history": ["conv4_block6_add", 0, 0]}}], "kwargs": {}}]}, {"class_name": "Conv2D", "config": {"name": "conv5_block1_1_conv", "trainable": false, "dtype": {"module": "keras", "class_name": "DTypePolicy", "config": {"name": "float32"}, "registered_name": null}, "filters": 512, "kernel_size": [1, 1], "strides": [2, 2], "padding": "valid", "data_format": "channels_last", "dilation_rate": [1, 1], "groups": 1, "activation": "linear", "use_bias": true, "kernel_initializer": {"module": "keras.initializers", "class_name": "GlorotUniform", "config": {"seed": null}, "registered_name": null}, "bias_initializer": {"module": "keras.initializers", "class_name": "Zeros", "config": {}, "registered_name": null}, "kernel_regularizer": null, "bias_regularizer": null, "activity_regularizer": null, "kernel_constraint": null, "bias_constraint": null}, "name": "conv5_block1_1_conv", "inbound_nodes": [{"args": [{"class_name": "__keras_tensor__", "config": {"shape": [null, 19, 19, 1024], "dtype": "float32", "keras_history": ["conv4_block6_out", 0, 0]}}], "kwargs": {}}]}, {"class_name": "BatchNormalization", "config": {"name": "conv5_block1_1_bn", "trainable": false, "dtype": {"module": "keras", "class_name": "DTypePolicy", "config": {"name": "float32"}, "registered_name": null}, "axis": 3, "momentum": 0.99, "epsilon": 1.001e-05, "center": true, "scale": true, "beta_initializer": {"module": "keras.initializers", "class_name": "Zeros", "config": {}, "registered_name": null}, "gamma_initializer": {"module": "keras.initializers", "class_name": "Ones", "config": {}, "registered_name": null}, "moving_mean_initializer": {"module": "keras.initializers", "class_name": "Zeros", "config": {}, "registered_name": null}, "moving_variance_initializer": {"module": "keras.initializers", "class_name": "Ones", "config": {}, "registered_name": null}, "beta_regularizer": null, "gamma_regularizer": null, "beta_constraint": null, "gamma_constraint": null, "synchronized": false}, "name": "conv5_block1_1_bn", "inbound_nodes": [{"args": [{"class_name": "__keras_tensor__", "config": {"shape": [null, 10, 10, 512], "dtype": "float32", "keras_history": ["conv5_block1_1_conv", 0, 0]}}], "kwargs": {"mask": null}}]}, {"class_name": "Activation", "config": {"name": "conv5_block1_1_relu", "trainable": false, "dtype": {"module": "keras", "class_name": "DTypePolicy", "config": {"name": "float32"}, "registered_name": null}, "activation": "relu"}, "name": "conv5_block1_1_relu", "inbound_nodes": [{"args": [{"class_name": "__keras_tensor__", "config": {"shape": [null, 10, 10, 512], "dtype": "float32", "keras_history": ["conv5_block1_1_bn", 0, 0]}}], "kwargs": {}}]}, {"class_name": "Conv2D", "config": {"name": "conv5_block1_2_conv", "trainable": false, "dtype": {"module": "keras", "class_name": "DTypePolicy", "config": {"name": "float32"}, "registered_name": null}, "filters": 512, "kernel_size": [3, 3], "strides": [1, 1], "padding": "same", "data_format": "channels_last", "dilation_rate": [1, 1], "groups": 1, "activation": "linear", "use_bias": true, "kernel_initializer": {"module": "keras.initializers", "class_name": "GlorotUniform", "config": {"seed": null}, "registered_name": null}, "bias_initializer": {"module": "keras.initializers", "class_name": "Zeros", "config": {}, "registered_name": null}, "kernel_regularizer": null, "bias_regularizer": null, "activity_regularizer": null, "kernel_constraint": null, "bias_constraint": null}, "name": "conv5_block1_2_conv", "inbound_nodes": [{"args": [{"class_name": "__keras_tensor__", "config": {"shape": [null, 10, 10, 512], "dtype": "float32", "keras_history": ["conv5_block1_1_relu", 0, 0]}}], "kwargs": {}}]}, {"class_name": "BatchNormalization", "config": {"name": "conv5_block1_2_bn", "trainable": false, "dtype": {"module": "keras", "class_name": "DTypePolicy", "config": {"name": "float32"}, "registered_name": null}, "axis": 3, "momentum": 0.99, "epsilon": 1.001e-05, "center": true, "scale": true, "beta_initializer": {"module": "keras.initializers", "class_name": "Zeros", "config": {}, "registered_name": null}, "gamma_initializer": {"module": "keras.initializers", "class_name": "Ones", "config": {}, "registered_name": null}, "moving_mean_initializer": {"module": "keras.initializers", "class_name": "Zeros", "config": {}, "registered_name": null}, "moving_variance_initializer": {"module": "keras.initializers", "class_name": "Ones", "config": {}, "registered_name": null}, "beta_regularizer": null, "gamma_regularizer": null, "beta_constraint": null, "gamma_constraint": null, "synchronized": false}, "name": "conv5_block1_2_bn", "inbound_nodes": [{"args": [{"class_name": "__keras_tensor__", "config": {"shape": [null, 10, 10, 512], "dtype": "float32", "keras_history": ["conv5_block1_2_conv", 0, 0]}}], "kwargs": {"mask": null}}]}, {"class_name": "Activation", "config": {"name": "conv5_block1_2_relu", "trainable": false, "dtype": {"module": "keras", "class_name": "DTypePolicy", "config": {"name": "float32"}, "registered_name": null}, "activation": "relu"}, "name": "conv5_block1_2_relu", "inbound_nodes": [{"args": [{"class_name": "__keras_tensor__", "config": {"shape": [null, 10, 10, 512], "dtype": "float32", "keras_history": ["conv5_block1_2_bn", 0, 0]}}], "kwargs": {}}]}, {"class_name": "Conv2D", "config": {"name": "conv5_block1_0_conv", "trainable": false, "dtype": {"module": "keras", "class_name": "DTypePolicy", "config": {"name": "float32"}, "registered_name": null}, "filters": 2048, "kernel_size": [1, 1], "strides": [2, 2], "padding": "valid", "data_format": "channels_last", "dilation_rate": [1, 1], "groups": 1, "activation": "linear", "use_bias": true, "kernel_initializer": {"module": "keras.initializers", "class_name": "GlorotUniform", "config": {"seed": null}, "registered_name": null}, "bias_initializer": {"module": "keras.initializers", "class_name": "Zeros", "config": {}, "registered_name": null}, "kernel_regularizer": null, "bias_regularizer": null, "activity_regularizer": null, "kernel_constraint": null, "bias_constraint": null}, "name": "conv5_block1_0_conv", "inbound_nodes": [{"args": [{"class_name": "__keras_tensor__", "config": {"shape": [null, 19, 19, 1024], "dtype": "float32", "keras_history": ["conv4_block6_out", 0, 0]}}], "kwargs": {}}]}, {"class_name": "Conv2D", "config": {"name": "conv5_block1_3_conv", "trainable": false, "dtype": {"module": "keras", "class_name": "DTypePolicy", "config": {"name": "float32"}, "registered_name": null}, "filters": 2048, "kernel_size": [1, 1], "strides": [1, 1], "padding": "valid", "data_format": "channels_last", "dilation_rate": [1, 1], "groups": 1, "activation": "linear", "use_bias": true, "kernel_initializer": {"module": "keras.initializers", "class_name": "GlorotUniform", "config": {"seed": null}, "registered_name": null}, "bias_initializer": {"module": "keras.initializers", "class_name": "Zeros", "config": {}, "registered_name": null}, "kernel_regularizer": null, "bias_regularizer": null, "activity_regularizer": null, "kernel_constraint": null, "bias_constraint": null}, "name": "conv5_block1_3_conv", "inbound_nodes": [{"args": [{"class_name": "__keras_tensor__", "config": {"shape": [null, 10, 10, 512], "dtype": "float32", "keras_history": ["conv5_block1_2_relu", 0, 0]}}], "kwargs": {}}]}, {"class_name": "BatchNormalization", "config": {"name": "conv5_block1_0_bn", "trainable": false, "dtype": {"module": "keras", "class_name": "DTypePolicy", "config": {"name": "float32"}, "registered_name": null}, "axis": 3, "momentum": 0.99, "epsilon": 1.001e-05, "center": true, "scale": true, "beta_initializer": {"module": "keras.initializers", "class_name": "Zeros", "config": {}, "registered_name": null}, "gamma_initializer": {"module": "keras.initializers", "class_name": "Ones", "config": {}, "registered_name": null}, "moving_mean_initializer": {"module": "keras.initializers", "class_name": "Zeros", "config": {}, "registered_name": null}, "moving_variance_initializer": {"module": "keras.initializers", "class_name": "Ones", "config": {}, "registered_name": null}, "beta_regularizer": null, "gamma_regularizer": null, "beta_constraint": null, "gamma_constraint": null, "synchronized": false}, "name": "conv5_block1_0_bn", "inbound_nodes": [{"args": [{"class_name": "__keras_tensor__", "config": {"shape": [null, 10, 10, 2048], "dtype": "float32", "keras_history": ["conv5_block1_0_conv", 0, 0]}}], "kwargs": {"mask": null}}]}, {"class_name": "BatchNormalization", "config": {"name": "conv5_block1_3_bn", "trainable": false, "dtype": {"module": "keras", "class_name": "DTypePolicy", "config": {"name": "float32"}, "registered_name": null}, "axis": 3, "momentum": 0.99, "epsilon": 1.001e-05, "center": true, "scale": true, "beta_initializer": {"module": "keras.initializers", "class_name": "Zeros", "config": {}, "registered_name": null}, "gamma_initializer": {"module": "keras.initializers", "class_name": "Ones", "config": {}, "registered_name": null}, "moving_mean_initializer": {"module": "keras.initializers", "class_name": "Zeros", "config": {}, "registered_name": null}, "moving_variance_initializer": {"module": "keras.initializers", "class_name": "Ones", "config": {}, "registered_name": null}, "beta_regularizer": null, "gamma_regularizer": null, "beta_constraint": null, "gamma_constraint": null, "synchronized": false}, "name": "conv5_block1_3_bn", "inbound_nodes": [{"args": [{"class_name": "__keras_tensor__", "config": {"shape": [null, 10, 10, 2048], "dtype": "float32", "keras_history": ["conv5_block1_3_conv", 0, 0]}}], "kwargs": {"mask": null}}]}, {"class_name": "Add", "config": {"name": "conv5_block1_add", "trainable": false, "dtype": {"module": "keras", "class_name": "DTypePolicy", "config": {"name": "float32"}, "registered_name": null}}, "name": "conv5_block1_add", "inbound_nodes": [{"args": [[{"class_name": "__keras_tensor__", "config": {"shape": [null, 10, 10, 2048], "dtype": "float32", "keras_history": ["conv5_block1_0_bn", 0, 0]}}, {"class_name": "__keras_tensor__", "config": {"shape": [null, 10, 10, 2048], "dtype": "float32", "keras_history": ["conv5_block1_3_bn", 0, 0]}}]], "kwargs": {}}]}, {"class_name": "Activation", "config": {"name": "conv5_block1_out", "trainable": false, "dtype": {"module": "keras", "class_name": "DTypePolicy", "config": {"name": "float32"}, "registered_name": null}, "activation": "relu"}, "name": "conv5_block1_out", "inbound_nodes": [{"args": [{"class_name": "__keras_tensor__", "config": {"shape": [null, 10, 10, 2048], "dtype": "float32", "keras_history": ["conv5_block1_add", 0, 0]}}], "kwargs": {}}]}, {"class_name": "Conv2D", "config": {"name": "conv5_block2_1_conv", "trainable": false, "dtype": {"module": "keras", "class_name": "DTypePolicy", "config": {"name": "float32"}, "registered_name": null}, "filters": 512, "kernel_size": [1, 1], "strides": [1, 1], "padding": "valid", "data_format": "channels_last", "dilation_rate": [1, 1], "groups": 1, "activation": "linear", "use_bias": true, "kernel_initializer": {"module": "keras.initializers", "class_name": "GlorotUniform", "config": {"seed": null}, "registered_name": null}, "bias_initializer": {"module": "keras.initializers", "class_name": "Zeros", "config": {}, "registered_name": null}, "kernel_regularizer": null, "bias_regularizer": null, "activity_regularizer": null, "kernel_constraint": null, "bias_constraint": null}, "name": "conv5_block2_1_conv", "inbound_nodes": [{"args": [{"class_name": "__keras_tensor__", "config": {"shape": [null, 10, 10, 2048], "dtype": "float32", "keras_history": ["conv5_block1_out", 0, 0]}}], "kwargs": {}}]}, {"class_name": "BatchNormalization", "config": {"name": "conv5_block2_1_bn", "trainable": false, "dtype": {"module": "keras", "class_name": "DTypePolicy", "config": {"name": "float32"}, "registered_name": null}, "axis": 3, "momentum": 0.99, "epsilon": 1.001e-05, "center": true, "scale": true, "beta_initializer": {"module": "keras.initializers", "class_name": "Zeros", "config": {}, "registered_name": null}, "gamma_initializer": {"module": "keras.initializers", "class_name": "Ones", "config": {}, "registered_name": null}, "moving_mean_initializer": {"module": "keras.initializers", "class_name": "Zeros", "config": {}, "registered_name": null}, "moving_variance_initializer": {"module": "keras.initializers", "class_name": "Ones", "config": {}, "registered_name": null}, "beta_regularizer": null, "gamma_regularizer": null, "beta_constraint": null, "gamma_constraint": null, "synchronized": false}, "name": "conv5_block2_1_bn", "inbound_nodes": [{"args": [{"class_name": "__keras_tensor__", "config": {"shape": [null, 10, 10, 512], "dtype": "float32", "keras_history": ["conv5_block2_1_conv", 0, 0]}}], "kwargs": {"mask": null}}]}, {"class_name": "Activation", "config": {"name": "conv5_block2_1_relu", "trainable": false, "dtype": {"module": "keras", "class_name": "DTypePolicy", "config": {"name": "float32"}, "registered_name": null}, "activation": "relu"}, "name": "conv5_block2_1_relu", "inbound_nodes": [{"args": [{"class_name": "__keras_tensor__", "config": {"shape": [null, 10, 10, 512], "dtype": "float32", "keras_history": ["conv5_block2_1_bn", 0, 0]}}], "kwargs": {}}]}, {"class_name": "Conv2D", "config": {"name": "conv5_block2_2_conv", "trainable": false, "dtype": {"module": "keras", "class_name": "DTypePolicy", "config": {"name": "float32"}, "registered_name": null}, "filters": 512, "kernel_size": [3, 3], "strides": [1, 1], "padding": "same", "data_format": "channels_last", "dilation_rate": [1, 1], "groups": 1, "activation": "linear", "use_bias": true, "kernel_initializer": {"module": "keras.initializers", "class_name": "GlorotUniform", "config": {"seed": null}, "registered_name": null}, "bias_initializer": {"module": "keras.initializers", "class_name": "Zeros", "config": {}, "registered_name": null}, "kernel_regularizer": null, "bias_regularizer": null, "activity_regularizer": null, "kernel_constraint": null, "bias_constraint": null}, "name": "conv5_block2_2_conv", "inbound_nodes": [{"args": [{"class_name": "__keras_tensor__", "config": {"shape": [null, 10, 10, 512], "dtype": "float32", "keras_history": ["conv5_block2_1_relu", 0, 0]}}], "kwargs": {}}]}, {"class_name": "BatchNormalization", "config": {"name": "conv5_block2_2_bn", "trainable": false, "dtype": {"module": "keras", "class_name": "DTypePolicy", "config": {"name": "float32"}, "registered_name": null}, "axis": 3, "momentum": 0.99, "epsilon": 1.001e-05, "center": true, "scale": true, "beta_initializer": {"module": "keras.initializers", "class_name": "Zeros", "config": {}, "registered_name": null}, "gamma_initializer": {"module": "keras.initializers", "class_name": "Ones", "config": {}, "registered_name": null}, "moving_mean_initializer": {"module": "keras.initializers", "class_name": "Zeros", "config": {}, "registered_name": null}, "moving_variance_initializer": {"module": "keras.initializers", "class_name": "Ones", "config": {}, "registered_name": null}, "beta_regularizer": null, "gamma_regularizer": null, "beta_constraint": null, "gamma_constraint": null, "synchronized": false}, "name": "conv5_block2_2_bn", "inbound_nodes": [{"args": [{"class_name": "__keras_tensor__", "config": {"shape": [null, 10, 10, 512], "dtype": "float32", "keras_history": ["conv5_block2_2_conv", 0, 0]}}], "kwargs": {"mask": null}}]}, {"class_name": "Activation", "config": {"name": "conv5_block2_2_relu", "trainable": false, "dtype": {"module": "keras", "class_name": "DTypePolicy", "config": {"name": "float32"}, "registered_name": null}, "activation": "relu"}, "name": "conv5_block2_2_relu", "inbound_nodes": [{"args": [{"class_name": "__keras_tensor__", "config": {"shape": [null, 10, 10, 512], "dtype": "float32", "keras_history": ["conv5_block2_2_bn", 0, 0]}}], "kwargs": {}}]}, {"class_name": "Conv2D", "config": {"name": "conv5_block2_3_conv", "trainable": false, "dtype": {"module": "keras", "class_name": "DTypePolicy", "config": {"name": "float32"}, "registered_name": null}, "filters": 2048, "kernel_size": [1, 1], "strides": [1, 1], "padding": "valid", "data_format": "channels_last", "dilation_rate": [1, 1], "groups": 1, "activation": "linear", "use_bias": true, "kernel_initializer": {"module": "keras.initializers", "class_name": "GlorotUniform", "config": {"seed": null}, "registered_name": null}, "bias_initializer": {"module": "keras.initializers", "class_name": "Zeros", "config": {}, "registered_name": null}, "kernel_regularizer": null, "bias_regularizer": null, "activity_regularizer": null, "kernel_constraint": null, "bias_constraint": null}, "name": "conv5_block2_3_conv", "inbound_nodes": [{"args": [{"class_name": "__keras_tensor__", "config": {"shape": [null, 10, 10, 512], "dtype": "float32", "keras_history": ["conv5_block2_2_relu", 0, 0]}}], "kwargs": {}}]}, {"class_name": "BatchNormalization", "config": {"name": "conv5_block2_3_bn", "trainable": false, "dtype": {"module": "keras", "class_name": "DTypePolicy", "config": {"name": "float32"}, "registered_name": null}, "axis": 3, "momentum": 0.99, "epsilon": 1.001e-05, "center": true, "scale": true, "beta_initializer": {"module": "keras.initializers", "class_name": "Zeros", "config": {}, "registered_name": null}, "gamma_initializer": {"module": "keras.initializers", "class_name": "Ones", "config": {}, "registered_name": null}, "moving_mean_initializer": {"module": "keras.initializers", "class_name": "Zeros", "config": {}, "registered_name": null}, "moving_variance_initializer": {"module": "keras.initializers", "class_name": "Ones", "config": {}, "registered_name": null}, "beta_regularizer": null, "gamma_regularizer": null, "beta_constraint": null, "gamma_constraint": null, "synchronized": false}, "name": "conv5_block2_3_bn", "inbound_nodes": [{"args": [{"class_name": "__keras_tensor__", "config": {"shape": [null, 10, 10, 2048], "dtype": "float32", "keras_history": ["conv5_block2_3_conv", 0, 0]}}], "kwargs": {"mask": null}}]}, {"class_name": "Add", "config": {"name": "conv5_block2_add", "trainable": false, "dtype": {"module": "keras", "class_name": "DTypePolicy", "config": {"name": "float32"}, "registered_name": null}}, "name": "conv5_block2_add", "inbound_nodes": [{"args": [[{"class_name": "__keras_tensor__", "config": {"shape": [null, 10, 10, 2048], "dtype": "float32", "keras_history": ["conv5_block1_out", 0, 0]}}, {"class_name": "__keras_tensor__", "config": {"shape": [null, 10, 10, 2048], "dtype": "float32", "keras_history": ["conv5_block2_3_bn", 0, 0]}}]], "kwargs": {}}]}, {"class_name": "Activation", "config": {"name": "conv5_block2_out", "trainable": false, "dtype": {"module": "keras", "class_name": "DTypePolicy", "config": {"name": "float32"}, "registered_name": null}, "activation": "relu"}, "name": "conv5_block2_out", "inbound_nodes": [{"args": [{"class_name": "__keras_tensor__", "config": {"shape": [null, 10, 10, 2048], "dtype": "float32", "keras_history": ["conv5_block2_add", 0, 0]}}], "kwargs": {}}]}, {"class_name": "Conv2D", "config": {"name": "conv5_block3_1_conv", "trainable": false, "dtype": {"module": "keras", "class_name": "DTypePolicy", "config": {"name": "float32"}, "registered_name": null}, "filters": 512, "kernel_size": [1, 1], "strides": [1, 1], "padding": "valid", "data_format": "channels_last", "dilation_rate": [1, 1], "groups": 1, "activation": "linear", "use_bias": true, "kernel_initializer": {"module": "keras.initializers", "class_name": "GlorotUniform", "config": {"seed": null}, "registered_name": null}, "bias_initializer": {"module": "keras.initializers", "class_name": "Zeros", "config": {}, "registered_name": null}, "kernel_regularizer": null, "bias_regularizer": null, "activity_regularizer": null, "kernel_constraint": null, "bias_constraint": null}, "name": "conv5_block3_1_conv", "inbound_nodes": [{"args": [{"class_name": "__keras_tensor__", "config": {"shape": [null, 10, 10, 2048], "dtype": "float32", "keras_history": ["conv5_block2_out", 0, 0]}}], "kwargs": {}}]}, {"class_name": "BatchNormalization", "config": {"name": "conv5_block3_1_bn", "trainable": false, "dtype": {"module": "keras", "class_name": "DTypePolicy", "config": {"name": "float32"}, "registered_name": null}, "axis": 3, "momentum": 0.99, "epsilon": 1.001e-05, "center": true, "scale": true, "beta_initializer": {"module": "keras.initializers", "class_name": "Zeros", "config": {}, "registered_name": null}, "gamma_initializer": {"module": "keras.initializers", "class_name": "Ones", "config": {}, "registered_name": null}, "moving_mean_initializer": {"module": "keras.initializers", "class_name": "Zeros", "config": {}, "registered_name": null}, "moving_variance_initializer": {"module": "keras.initializers", "class_name": "Ones", "config": {}, "registered_name": null}, "beta_regularizer": null, "gamma_regularizer": null, "beta_constraint": null, "gamma_constraint": null, "synchronized": false}, "name": "conv5_block3_1_bn", "inbound_nodes": [{"args": [{"class_name": "__keras_tensor__", "config": {"shape": [null, 10, 10, 512], "dtype": "float32", "keras_history": ["conv5_block3_1_conv", 0, 0]}}], "kwargs": {"mask": null}}]}, {"class_name": "Activation", "config": {"name": "conv5_block3_1_relu", "trainable": false, "dtype": {"module": "keras", "class_name": "DTypePolicy", "config": {"name": "float32"}, "registered_name": null}, "activation": "relu"}, "name": "conv5_block3_1_relu", "inbound_nodes": [{"args": [{"class_name": "__keras_tensor__", "config": {"shape": [null, 10, 10, 512], "dtype": "float32", "keras_history": ["conv5_block3_1_bn", 0, 0]}}], "kwargs": {}}]}, {"class_name": "Conv2D", "config": {"name": "conv5_block3_2_conv", "trainable": false, "dtype": {"module": "keras", "class_name": "DTypePolicy", "config": {"name": "float32"}, "registered_name": null}, "filters": 512, "kernel_size": [3, 3], "strides": [1, 1], "padding": "same", "data_format": "channels_last", "dilation_rate": [1, 1], "groups": 1, "activation": "linear", "use_bias": true, "kernel_initializer": {"module": "keras.initializers", "class_name": "GlorotUniform", "config": {"seed": null}, "registered_name": null}, "bias_initializer": {"module": "keras.initializers", "class_name": "Zeros", "config": {}, "registered_name": null}, "kernel_regularizer": null, "bias_regularizer": null, "activity_regularizer": null, "kernel_constraint": null, "bias_constraint": null}, "name": "conv5_block3_2_conv", "inbound_nodes": [{"args": [{"class_name": "__keras_tensor__", "config": {"shape": [null, 10, 10, 512], "dtype": "float32", "keras_history": ["conv5_block3_1_relu", 0, 0]}}], "kwargs": {}}]}, {"class_name": "BatchNormalization", "config": {"name": "conv5_block3_2_bn", "trainable": false, "dtype": {"module": "keras", "class_name": "DTypePolicy", "config": {"name": "float32"}, "registered_name": null}, "axis": 3, "momentum": 0.99, "epsilon": 1.001e-05, "center": true, "scale": true, "beta_initializer": {"module": "keras.initializers", "class_name": "Zeros", "config": {}, "registered_name": null}, "gamma_initializer": {"module": "keras.initializers", "class_name": "Ones", "config": {}, "registered_name": null}, "moving_mean_initializer": {"module": "keras.initializers", "class_name": "Zeros", "config": {}, "registered_name": null}, "moving_variance_initializer": {"module": "keras.initializers", "class_name": "Ones", "config": {}, "registered_name": null}, "beta_regularizer": null, "gamma_regularizer": null, "beta_constraint": null, "gamma_constraint": null, "synchronized": false}, "name": "conv5_block3_2_bn", "inbound_nodes": [{"args": [{"class_name": "__keras_tensor__", "config": {"shape": [null, 10, 10, 512], "dtype": "float32", "keras_history": ["conv5_block3_2_conv", 0, 0]}}], "kwargs": {"mask": null}}]}, {"class_name": "Activation", "config": {"name": "conv5_block3_2_relu", "trainable": false, "dtype": {"module": "keras", "class_name": "DTypePolicy", "config": {"name": "float32"}, "registered_name": null}, "activation": "relu"}, "name": "conv5_block3_2_relu", "inbound_nodes": [{"args": [{"class_name": "__keras_tensor__", "config": {"shape": [null, 10, 10, 512], "dtype": "float32", "keras_history": ["conv5_block3_2_bn", 0, 0]}}], "kwargs": {}}]}, {"class_name": "Conv2D", "config": {"name": "conv5_block3_3_conv", "trainable": false, "dtype": {"module": "keras", "class_name": "DTypePolicy", "config": {"name": "float32"}, "registered_name": null}, "filters": 2048, "kernel_size": [1, 1], "strides": [1, 1], "padding": "valid", "data_format": "channels_last", "dilation_rate": [1, 1], "groups": 1, "activation": "linear", "use_bias": true, "kernel_initializer": {"module": "keras.initializers", "class_name": "GlorotUniform", "config": {"seed": null}, "registered_name": null}, "bias_initializer": {"module": "keras.initializers", "class_name": "Zeros", "config": {}, "registered_name": null}, "kernel_regularizer": null, "bias_regularizer": null, "activity_regularizer": null, "kernel_constraint": null, "bias_constraint": null}, "name": "conv5_block3_3_conv", "inbound_nodes": [{"args": [{"class_name": "__keras_tensor__", "config": {"shape": [null, 10, 10, 512], "dtype": "float32", "keras_history": ["conv5_block3_2_relu", 0, 0]}}], "kwargs": {}}]}, {"class_name": "BatchNormalization", "config": {"name": "conv5_block3_3_bn", "trainable": false, "dtype": {"module": "keras", "class_name": "DTypePolicy", "config": {"name": "float32"}, "registered_name": null}, "axis": 3, "momentum": 0.99, "epsilon": 1.001e-05, "center": true, "scale": true, "beta_initializer": {"module": "keras.initializers", "class_name": "Zeros", "config": {}, "registered_name": null}, "gamma_initializer": {"module": "keras.initializers", "class_name": "Ones", "config": {}, "registered_name": null}, "moving_mean_initializer": {"module": "keras.initializers", "class_name": "Zeros", "config": {}, "registered_name": null}, "moving_variance_initializer": {"module": "keras.initializers", "class_name": "Ones", "config": {}, "registered_name": null}, "beta_regularizer": null, "gamma_regularizer": null, "beta_constraint": null, "gamma_constraint": null, "synchronized": false}, "name": "conv5_block3_3_bn", "inbound_nodes": [{"args": [{"class_name": "__keras_tensor__", "config": {"shape": [null, 10, 10, 2048], "dtype": "float32", "keras_history": ["conv5_block3_3_conv", 0, 0]}}], "kwargs": {"mask": null}}]}, {"class_name": "Add", "config": {"name": "conv5_block3_add", "trainable": false, "dtype": {"module": "keras", "class_name": "DTypePolicy", "config": {"name": "float32"}, "registered_name": null}}, "name": "conv5_block3_add", "inbound_nodes": [{"args": [[{"class_name": "__keras_tensor__", "config": {"shape": [null, 10, 10, 2048], "dtype": "float32", "keras_history": ["conv5_block2_out", 0, 0]}}, {"class_name": "__keras_tensor__", "config": {"shape": [null, 10, 10, 2048], "dtype": "float32", "keras_history": ["conv5_block3_3_bn", 0, 0]}}]], "kwargs": {}}]}, {"class_name": "Activation", "config": {"name": "conv5_block3_out", "trainable": false, "dtype": {"module": "keras", "class_name": "DTypePolicy", "config": {"name": "float32"}, "registered_name": null}, "activation": "relu"}, "name": "conv5_block3_out", "inbound_nodes": [{"args": [{"class_name": "__keras_tensor__", "config": {"shape": [null, 10, 10, 2048], "dtype": "float32", "keras_history": ["conv5_block3_add", 0, 0]}}], "kwargs": {}}]}, {"class_name": "GlobalAveragePooling2D", "config": {"name": "avg_pool", "trainable": false, "dtype": {"module": "keras", "class_name": "DTypePolicy", "config": {"name": "float32"}, "registered_name": null}, "data_format": "channels_last", "keepdims": false}, "name": "avg_pool", "inbound_nodes": [{"args": [{"class_name": "__keras_tensor__", "config": {"shape": [null, 10, 10, 2048], "dtype": "float32", "keras_history": ["conv5_block3_out", 0, 0]}}], "kwargs": {}}]}], "input_layers": [["input_layer_4", 0, 0]], "output_layers": [["avg_pool", 0, 0]]}}, {"class_name": "Flatten", "config": {"name": "flatten_3", "trainable": true, "dtype": {"module": "keras", "class_name": "DTypePolicy", "config": {"name": "float32"}, "registered_name": null}, "data_format": "channels_last"}}, {"class_name": "Dense", "config": {"name": "dense_6", "trainable": true, "dtype": {"module": "keras", "class_name": "DTypePolicy", "config": {"name": "float32"}, "registered_name": null}, "units": 512, "activation": "relu", "use_bias": true, "kernel_initializer": {"module": "keras.initializers", "class_name": "GlorotUniform", "config": {"seed": null}, "registered_name": null}, "bias_initializer": {"module": "keras.initializers", "class_name": "Zeros", "config": {}, "registered_name": null}, "kernel_regularizer": {"module": "keras.regularizers", "class_name": "L2", "config": {"l2": 0.01}, "registered_name": null}, "bias_regularizer": null, "kernel_constraint": null, "bias_constraint": null}}, {"class_name": "Dropout", "config": {"name": "dropout_1", "trainable": true, "dtype": {"module": "keras", "class_name": "DTypePolicy", "config": {"name": "float32"}, "registered_name": null}, "rate": 0.5, "seed": null, "noise_shape": null}}, {"class_name": "Dense", "config": {"name": "dense_7", "trainable": true, "dtype": {"module": "keras", "class_name": "DTypePolicy", "config": {"name": "float32"}, "registered_name": null}, "units": 2, "activation": "softmax", "use_bias": true, "kernel_initializer": {"module": "keras.initializers", "class_name": "GlorotUniform", "config": {"seed": null}, "registered_name": null}, "bias_initializer": {"module": "keras.initializers", "class_name": "Zeros", "config": {}, "registered_name": null}, "kernel_regularizer": null, "bias_regularizer": null, "kernel_constraint": null, "bias_constraint": null}}], "build_input_shape": [null, 300, 300, 3]}}, "training_config": {"loss": "sparse_categorical_crossentropy", "loss_weights": null, "metrics": ["accuracy"], "weighted_metrics": null, "run_eagerly": false, "steps_per_execution": 1, "jit_compile": true, "optimizer_config": {"class_name": "SGD", "config": {"name": "SGD", "learning_rate": 0.0008999999845400453, "weight_decay": null, "clipnorm": null, "global_clipnorm": null, "clipvalue": null, "use_ema": false, "ema_momentum": 0.99, "ema_overwrite_frequency": null, "loss_scale_factor": null, "gradient_accumulation_steps": null, "momentum": 0.0, "nesterov": false}}}}, "weightsManifest": [{"paths": ["group1-shard1of24.bin", "group1-shard2of24.bin", "group1-shard3of24.bin", "group1-shard4of24.bin", "group1-shard5of24.bin", "group1-shard6of24.bin", "group1-shard7of24.bin", "group1-shard8of24.bin", "group1-shard9of24.bin", "group1-shard10of24.bin", "group1-shard11of24.bin", "group1-shard12of24.bin", "group1-shard13of24.bin", "group1-shard14of24.bin", "group1-shard15of24.bin", "group1-shard16of24.bin", "group1-shard17of24.bin", "group1-shard18of24.bin", "group1-shard19of24.bin", "group1-shard20of24.bin", "group1-shard21of24.bin", "group1-shard22of24.bin", "group1-shard23of24.bin", "group1-shard24of24.bin"], "weights": [{"name": "sequential_3/dense_6/kernel", "shape": [2048, 512], "dtype": "float32"}, {"name": "sequential_3/dense_6/bias", "shape": [512], "dtype": "float32"}, {"name": "sequential_3/dense_7/kernel", "shape": [512, 2], "dtype": "float32"}, {"name": "sequential_3/dense_7/bias", "shape": [2], "dtype": "float32"}, {"name": "conv1_conv/kernel", "shape": [7, 7, 3, 64], "dtype": "float32"}, {"name": "conv1_conv/bias", "shape": [64], "dtype": "float32"}, {"name": "conv1_bn/gamma", "shape": [64], "dtype": "float32"}, {"name": "conv1_bn/beta", "shape": [64], "dtype": "float32"}, {"name": "conv1_bn/moving_mean", "shape": [64], "dtype": "float32"}, {"name": "conv1_bn/moving_variance", "shape": [64], "dtype": "float32"}, {"name": "conv2_block1_1_conv/kernel", "shape": [1, 1, 64, 64], "dtype": "float32"}, {"name": "conv2_block1_1_conv/bias", "shape": [64], "dtype": "float32"}, {"name": "conv2_block1_1_bn/gamma", "shape": [64], "dtype": "float32"}, {"name": "conv2_block1_1_bn/beta", "shape": [64], "dtype": "float32"}, {"name": "conv2_block1_1_bn/moving_mean", "shape": [64], "dtype": "float32"}, {"name": "conv2_block1_1_bn/moving_variance", "shape": [64], "dtype": "float32"}, {"name": "conv2_block1_2_conv/kernel", "shape": [3, 3, 64, 64], "dtype": "float32"}, {"name": "conv2_block1_2_conv/bias", "shape": [64], "dtype": "float32"}, {"name": "conv2_block1_2_bn/gamma", "shape": [64], "dtype": "float32"}, {"name": "conv2_block1_2_bn/beta", "shape": [64], "dtype": "float32"}, {"name": "conv2_block1_2_bn/moving_mean", "shape": [64], "dtype": "float32"}, {"name": "conv2_block1_2_bn/moving_variance", "shape": [64], "dtype": "float32"}, {"name": "conv2_block1_0_conv/kernel", "shape": [1, 1, 64, 256], "dtype": "float32"}, {"name": "conv2_block1_0_conv/bias", "shape": [256], "dtype": "float32"}, {"name": "conv2_block1_3_conv/kernel", "shape": [1, 1, 64, 256], "dtype": "float32"}, {"name": "conv2_block1_3_conv/bias", "shape": [256], "dtype": "float32"}, {"name": "conv2_block1_0_bn/gamma", "shape": [256], "dtype": "float32"}, {"name": "conv2_block1_0_bn/beta", "shape": [256], "dtype": "float32"}, {"name": "conv2_block1_0_bn/moving_mean", "shape": [256], "dtype": "float32"}, {"name": "conv2_block1_0_bn/moving_variance", "shape": [256], "dtype": "float32"}, {"name": "conv2_block1_3_bn/gamma", "shape": [256], "dtype": "float32"}, {"name": "conv2_block1_3_bn/beta", "shape": [256], "dtype": "float32"}, {"name": "conv2_block1_3_bn/moving_mean", "shape": [256], "dtype": "float32"}, {"name": "conv2_block1_3_bn/moving_variance", "shape": [256], "dtype": "float32"}, {"name": "conv2_block2_1_conv/kernel", "shape": [1, 1, 256, 64], "dtype": "float32"}, {"name": "conv2_block2_1_conv/bias", "shape": [64], "dtype": "float32"}, {"name": "conv2_block2_1_bn/gamma", "shape": [64], "dtype": "float32"}, {"name": "conv2_block2_1_bn/beta", "shape": [64], "dtype": "float32"}, {"name": "conv2_block2_1_bn/moving_mean", "shape": [64], "dtype": "float32"}, {"name": "conv2_block2_1_bn/moving_variance", "shape": [64], "dtype": "float32"}, {"name": "conv2_block2_2_conv/kernel", "shape": [3, 3, 64, 64], "dtype": "float32"}, {"name": "conv2_block2_2_conv/bias", "shape": [64], "dtype": "float32"}, {"name": "conv2_block2_2_bn/gamma", "shape": [64], "dtype": "float32"}, {"name": "conv2_block2_2_bn/beta", "shape": [64], "dtype": "float32"}, {"name": "conv2_block2_2_bn/moving_mean", "shape": [64], "dtype": "float32"}, {"name": "conv2_block2_2_bn/moving_variance", "shape": [64], "dtype": "float32"}, {"name": "conv2_block2_3_conv/kernel", "shape": [1, 1, 64, 256], "dtype": "float32"}, {"name": "conv2_block2_3_conv/bias", "shape": [256], "dtype": "float32"}, {"name": "conv2_block2_3_bn/gamma", "shape": [256], "dtype": "float32"}, {"name": "conv2_block2_3_bn/beta", "shape": [256], "dtype": "float32"}, {"name": "conv2_block2_3_bn/moving_mean", "shape": [256], "dtype": "float32"}, {"name": "conv2_block2_3_bn/moving_variance", "shape": [256], "dtype": "float32"}, {"name": "conv2_block3_1_conv/kernel", "shape": [1, 1, 256, 64], "dtype": "float32"}, {"name": "conv2_block3_1_conv/bias", "shape": [64], "dtype": "float32"}, {"name": "conv2_block3_1_bn/gamma", "shape": [64], "dtype": "float32"}, {"name": "conv2_block3_1_bn/beta", "shape": [64], "dtype": "float32"}, {"name": "conv2_block3_1_bn/moving_mean", "shape": [64], "dtype": "float32"}, {"name": "conv2_block3_1_bn/moving_variance", "shape": [64], "dtype": "float32"}, {"name": "conv2_block3_2_conv/kernel", "shape": [3, 3, 64, 64], "dtype": "float32"}, {"name": "conv2_block3_2_conv/bias", "shape": [64], "dtype": "float32"}, {"name": "conv2_block3_2_bn/gamma", "shape": [64], "dtype": "float32"}, {"name": "conv2_block3_2_bn/beta", "shape": [64], "dtype": "float32"}, {"name": "conv2_block3_2_bn/moving_mean", "shape": [64], "dtype": "float32"}, {"name": "conv2_block3_2_bn/moving_variance", "shape": [64], "dtype": "float32"}, {"name": "conv2_block3_3_conv/kernel", "shape": [1, 1, 64, 256], "dtype": "float32"}, {"name": "conv2_block3_3_conv/bias", "shape": [256], "dtype": "float32"}, {"name": "conv2_block3_3_bn/gamma", "shape": [256], "dtype": "float32"}, {"name": "conv2_block3_3_bn/beta", "shape": [256], "dtype": "float32"}, {"name": "conv2_block3_3_bn/moving_mean", "shape": [256], "dtype": "float32"}, {"name": "conv2_block3_3_bn/moving_variance", "shape": [256], "dtype": "float32"}, {"name": "conv3_block1_1_conv/kernel", "shape": [1, 1, 256, 128], "dtype": "float32"}, {"name": "conv3_block1_1_conv/bias", "shape": [128], "dtype": "float32"}, {"name": "conv3_block1_1_bn/gamma", "shape": [128], "dtype": "float32"}, {"name": "conv3_block1_1_bn/beta", "shape": [128], "dtype": "float32"}, {"name": "conv3_block1_1_bn/moving_mean", "shape": [128], "dtype": "float32"}, {"name": "conv3_block1_1_bn/moving_variance", "shape": [128], "dtype": "float32"}, {"name": "conv3_block1_2_conv/kernel", "shape": [3, 3, 128, 128], "dtype": "float32"}, {"name": "conv3_block1_2_conv/bias", "shape": [128], "dtype": "float32"}, {"name": "conv3_block1_2_bn/gamma", "shape": [128], "dtype": "float32"}, {"name": "conv3_block1_2_bn/beta", "shape": [128], "dtype": "float32"}, {"name": "conv3_block1_2_bn/moving_mean", "shape": [128], "dtype": "float32"}, {"name": "conv3_block1_2_bn/moving_variance", "shape": [128], "dtype": "float32"}, {"name": "conv3_block1_0_conv/kernel", "shape": [1, 1, 256, 512], "dtype": "float32"}, {"name": "conv3_block1_0_conv/bias", "shape": [512], "dtype": "float32"}, {"name": "conv3_block1_3_conv/kernel", "shape": [1, 1, 128, 512], "dtype": "float32"}, {"name": "conv3_block1_3_conv/bias", "shape": [512], "dtype": "float32"}, {"name": "conv3_block1_0_bn/gamma", "shape": [512], "dtype": "float32"}, {"name": "conv3_block1_0_bn/beta", "shape": [512], "dtype": "float32"}, {"name": "conv3_block1_0_bn/moving_mean", "shape": [512], "dtype": "float32"}, {"name": "conv3_block1_0_bn/moving_variance", "shape": [512], "dtype": "float32"}, {"name": "conv3_block1_3_bn/gamma", "shape": [512], "dtype": "float32"}, {"name": "conv3_block1_3_bn/beta", "shape": [512], "dtype": "float32"}, {"name": "conv3_block1_3_bn/moving_mean", "shape": [512], "dtype": "float32"}, {"name": "conv3_block1_3_bn/moving_variance", "shape": [512], "dtype": "float32"}, {"name": "conv3_block2_1_conv/kernel", "shape": [1, 1, 512, 128], "dtype": "float32"}, {"name": "conv3_block2_1_conv/bias", "shape": [128], "dtype": "float32"}, {"name": "conv3_block2_1_bn/gamma", "shape": [128], "dtype": "float32"}, {"name": "conv3_block2_1_bn/beta", "shape": [128], "dtype": "float32"}, {"name": "conv3_block2_1_bn/moving_mean", "shape": [128], "dtype": "float32"}, {"name": "conv3_block2_1_bn/moving_variance", "shape": [128], "dtype": "float32"}, {"name": "conv3_block2_2_conv/kernel", "shape": [3, 3, 128, 128], "dtype": "float32"}, {"name": "conv3_block2_2_conv/bias", "shape": [128], "dtype": "float32"}, {"name": "conv3_block2_2_bn/gamma", "shape": [128], "dtype": "float32"}, {"name": "conv3_block2_2_bn/beta", "shape": [128], "dtype": "float32"}, {"name": "conv3_block2_2_bn/moving_mean", "shape": [128], "dtype": "float32"}, {"name": "conv3_block2_2_bn/moving_variance", "shape": [128], "dtype": "float32"}, {"name": "conv3_block2_3_conv/kernel", "shape": [1, 1, 128, 512], "dtype": "float32"}, {"name": "conv3_block2_3_conv/bias", "shape": [512], "dtype": "float32"}, {"name": "conv3_block2_3_bn/gamma", "shape": [512], "dtype": "float32"}, {"name": "conv3_block2_3_bn/beta", "shape": [512], "dtype": "float32"}, {"name": "conv3_block2_3_bn/moving_mean", "shape": [512], "dtype": "float32"}, {"name": "conv3_block2_3_bn/moving_variance", "shape": [512], "dtype": "float32"}, {"name": "conv3_block3_1_conv/kernel", "shape": [1, 1, 512, 128], "dtype": "float32"}, {"name": "conv3_block3_1_conv/bias", "shape": [128], "dtype": "float32"}, {"name": "conv3_block3_1_bn/gamma", "shape": [128], "dtype": "float32"}, {"name": "conv3_block3_1_bn/beta", "shape": [128], "dtype": "float32"}, {"name": "conv3_block3_1_bn/moving_mean", "shape": [128], "dtype": "float32"}, {"name": "conv3_block3_1_bn/moving_variance", "shape": [128], "dtype": "float32"}, {"name": "conv3_block3_2_conv/kernel", "shape": [3, 3, 128, 128], "dtype": "float32"}, {"name": "conv3_block3_2_conv/bias", "shape": [128], "dtype": "float32"}, {"name": "conv3_block3_2_bn/gamma", "shape": [128], "dtype": "float32"}, {"name": "conv3_block3_2_bn/beta", "shape": [128], "dtype": "float32"}, {"name": "conv3_block3_2_bn/moving_mean", "shape": [128], "dtype": "float32"}, {"name": "conv3_block3_2_bn/moving_variance", "shape": [128], "dtype": "float32"}, {"name": "conv3_block3_3_conv/kernel", "shape": [1, 1, 128, 512], "dtype": "float32"}, {"name": "conv3_block3_3_conv/bias", "shape": [512], "dtype": "float32"}, {"name": "conv3_block3_3_bn/gamma", "shape": [512], "dtype": "float32"}, {"name": "conv3_block3_3_bn/beta", "shape": [512], "dtype": "float32"}, {"name": "conv3_block3_3_bn/moving_mean", "shape": [512], "dtype": "float32"}, {"name": "conv3_block3_3_bn/moving_variance", "shape": [512], "dtype": "float32"}, {"name": "conv3_block4_1_conv/kernel", "shape": [1, 1, 512, 128], "dtype": "float32"}, {"name": "conv3_block4_1_conv/bias", "shape": [128], "dtype": "float32"}, {"name": "conv3_block4_1_bn/gamma", "shape": [128], "dtype": "float32"}, {"name": "conv3_block4_1_bn/beta", "shape": [128], "dtype": "float32"}, {"name": "conv3_block4_1_bn/moving_mean", "shape": [128], "dtype": "float32"}, {"name": "conv3_block4_1_bn/moving_variance", "shape": [128], "dtype": "float32"}, {"name": "conv3_block4_2_conv/kernel", "shape": [3, 3, 128, 128], "dtype": "float32"}, {"name": "conv3_block4_2_conv/bias", "shape": [128], "dtype": "float32"}, {"name": "conv3_block4_2_bn/gamma", "shape": [128], "dtype": "float32"}, {"name": "conv3_block4_2_bn/beta", "shape": [128], "dtype": "float32"}, {"name": "conv3_block4_2_bn/moving_mean", "shape": [128], "dtype": "float32"}, {"name": "conv3_block4_2_bn/moving_variance", "shape": [128], "dtype": "float32"}, {"name": "conv3_block4_3_conv/kernel", "shape": [1, 1, 128, 512], "dtype": "float32"}, {"name": "conv3_block4_3_conv/bias", "shape": [512], "dtype": "float32"}, {"name": "conv3_block4_3_bn/gamma", "shape": [512], "dtype": "float32"}, {"name": "conv3_block4_3_bn/beta", "shape": [512], "dtype": "float32"}, {"name": "conv3_block4_3_bn/moving_mean", "shape": [512], "dtype": "float32"}, {"name": "conv3_block4_3_bn/moving_variance", "shape": [512], "dtype": "float32"}, {"name": "conv4_block1_1_conv/kernel", "shape": [1, 1, 512, 256], "dtype": "float32"}, {"name": "conv4_block1_1_conv/bias", "shape": [256], "dtype": "float32"}, {"name": "conv4_block1_1_bn/gamma", "shape": [256], "dtype": "float32"}, {"name": "conv4_block1_1_bn/beta", "shape": [256], "dtype": "float32"}, {"name": "conv4_block1_1_bn/moving_mean", "shape": [256], "dtype": "float32"}, {"name": "conv4_block1_1_bn/moving_variance", "shape": [256], "dtype": "float32"}, {"name": "conv4_block1_2_conv/kernel", "shape": [3, 3, 256, 256], "dtype": "float32"}, {"name": "conv4_block1_2_conv/bias", "shape": [256], "dtype": "float32"}, {"name": "conv4_block1_2_bn/gamma", "shape": [256], "dtype": "float32"}, {"name": "conv4_block1_2_bn/beta", "shape": [256], "dtype": "float32"}, {"name": "conv4_block1_2_bn/moving_mean", "shape": [256], "dtype": "float32"}, {"name": "conv4_block1_2_bn/moving_variance", "shape": [256], "dtype": "float32"}, {"name": "conv4_block1_0_conv/kernel", "shape": [1, 1, 512, 1024], "dtype": "float32"}, {"name": "conv4_block1_0_conv/bias", "shape": [1024], "dtype": "float32"}, {"name": "conv4_block1_3_conv/kernel", "shape": [1, 1, 256, 1024], "dtype": "float32"}, {"name": "conv4_block1_3_conv/bias", "shape": [1024], "dtype": "float32"}, {"name": "conv4_block1_0_bn/gamma", "shape": [1024], "dtype": "float32"}, {"name": "conv4_block1_0_bn/beta", "shape": [1024], "dtype": "float32"}, {"name": "conv4_block1_0_bn/moving_mean", "shape": [1024], "dtype": "float32"}, {"name": "conv4_block1_0_bn/moving_variance", "shape": [1024], "dtype": "float32"}, {"name": "conv4_block1_3_bn/gamma", "shape": [1024], "dtype": "float32"}, {"name": "conv4_block1_3_bn/beta", "shape": [1024], "dtype": "float32"}, {"name": "conv4_block1_3_bn/moving_mean", "shape": [1024], "dtype": "float32"}, {"name": "conv4_block1_3_bn/moving_variance", "shape": [1024], "dtype": "float32"}, {"name": "conv4_block2_1_conv/kernel", "shape": [1, 1, 1024, 256], "dtype": "float32"}, {"name": "conv4_block2_1_conv/bias", "shape": [256], "dtype": "float32"}, {"name": "conv4_block2_1_bn/gamma", "shape": [256], "dtype": "float32"}, {"name": "conv4_block2_1_bn/beta", "shape": [256], "dtype": "float32"}, {"name": "conv4_block2_1_bn/moving_mean", "shape": [256], "dtype": "float32"}, {"name": "conv4_block2_1_bn/moving_variance", "shape": [256], "dtype": "float32"}, {"name": "conv4_block2_2_conv/kernel", "shape": [3, 3, 256, 256], "dtype": "float32"}, {"name": "conv4_block2_2_conv/bias", "shape": [256], "dtype": "float32"}, {"name": "conv4_block2_2_bn/gamma", "shape": [256], "dtype": "float32"}, {"name": "conv4_block2_2_bn/beta", "shape": [256], "dtype": "float32"}, {"name": "conv4_block2_2_bn/moving_mean", "shape": [256], "dtype": "float32"}, {"name": "conv4_block2_2_bn/moving_variance", "shape": [256], "dtype": "float32"}, {"name": "conv4_block2_3_conv/kernel", "shape": [1, 1, 256, 1024], "dtype": "float32"}, {"name": "conv4_block2_3_conv/bias", "shape": [1024], "dtype": "float32"}, {"name": "conv4_block2_3_bn/gamma", "shape": [1024], "dtype": "float32"}, {"name": "conv4_block2_3_bn/beta", "shape": [1024], "dtype": "float32"}, {"name": "conv4_block2_3_bn/moving_mean", "shape": [1024], "dtype": "float32"}, {"name": "conv4_block2_3_bn/moving_variance", "shape": [1024], "dtype": "float32"}, {"name": "conv4_block3_1_conv/kernel", "shape": [1, 1, 1024, 256], "dtype": "float32"}, {"name": "conv4_block3_1_conv/bias", "shape": [256], "dtype": "float32"}, {"name": "conv4_block3_1_bn/gamma", "shape": [256], "dtype": "float32"}, {"name": "conv4_block3_1_bn/beta", "shape": [256], "dtype": "float32"}, {"name": "conv4_block3_1_bn/moving_mean", "shape": [256], "dtype": "float32"}, {"name": "conv4_block3_1_bn/moving_variance", "shape": [256], "dtype": "float32"}, {"name": "conv4_block3_2_conv/kernel", "shape": [3, 3, 256, 256], "dtype": "float32"}, {"name": "conv4_block3_2_conv/bias", "shape": [256], "dtype": "float32"}, {"name": "conv4_block3_2_bn/gamma", "shape": [256], "dtype": "float32"}, {"name": "conv4_block3_2_bn/beta", "shape": [256], "dtype": "float32"}, {"name": "conv4_block3_2_bn/moving_mean", "shape": [256], "dtype": "float32"}, {"name": "conv4_block3_2_bn/moving_variance", "shape": [256], "dtype": "float32"}, {"name": "conv4_block3_3_conv/kernel", "shape": [1, 1, 256, 1024], "dtype": "float32"}, {"name": "conv4_block3_3_conv/bias", "shape": [1024], "dtype": "float32"}, {"name": "conv4_block3_3_bn/gamma", "shape": [1024], "dtype": "float32"}, {"name": "conv4_block3_3_bn/beta", "shape": [1024], "dtype": "float32"}, {"name": "conv4_block3_3_bn/moving_mean", "shape": [1024], "dtype": "float32"}, {"name": "conv4_block3_3_bn/moving_variance", "shape": [1024], "dtype": "float32"}, {"name": "conv4_block4_1_conv/kernel", "shape": [1, 1, 1024, 256], "dtype": "float32"}, {"name": "conv4_block4_1_conv/bias", "shape": [256], "dtype": "float32"}, {"name": "conv4_block4_1_bn/gamma", "shape": [256], "dtype": "float32"}, {"name": "conv4_block4_1_bn/beta", "shape": [256], "dtype": "float32"}, {"name": "conv4_block4_1_bn/moving_mean", "shape": [256], "dtype": "float32"}, {"name": "conv4_block4_1_bn/moving_variance", "shape": [256], "dtype": "float32"}, {"name": "conv4_block4_2_conv/kernel", "shape": [3, 3, 256, 256], "dtype": "float32"}, {"name": "conv4_block4_2_conv/bias", "shape": [256], "dtype": "float32"}, {"name": "conv4_block4_2_bn/gamma", "shape": [256], "dtype": "float32"}, {"name": "conv4_block4_2_bn/beta", "shape": [256], "dtype": "float32"}, {"name": "conv4_block4_2_bn/moving_mean", "shape": [256], "dtype": "float32"}, {"name": "conv4_block4_2_bn/moving_variance", "shape": [256], "dtype": "float32"}, {"name": "conv4_block4_3_conv/kernel", "shape": [1, 1, 256, 1024], "dtype": "float32"}, {"name": "conv4_block4_3_conv/bias", "shape": [1024], "dtype": "float32"}, {"name": "conv4_block4_3_bn/gamma", "shape": [1024], "dtype": "float32"}, {"name": "conv4_block4_3_bn/beta", "shape": [1024], "dtype": "float32"}, {"name": "conv4_block4_3_bn/moving_mean", "shape": [1024], "dtype": "float32"}, {"name": "conv4_block4_3_bn/moving_variance", "shape": [1024], "dtype": "float32"}, {"name": "conv4_block5_1_conv/kernel", "shape": [1, 1, 1024, 256], "dtype": "float32"}, {"name": "conv4_block5_1_conv/bias", "shape": [256], "dtype": "float32"}, {"name": "conv4_block5_1_bn/gamma", "shape": [256], "dtype": "float32"}, {"name": "conv4_block5_1_bn/beta", "shape": [256], "dtype": "float32"}, {"name": "conv4_block5_1_bn/moving_mean", "shape": [256], "dtype": "float32"}, {"name": "conv4_block5_1_bn/moving_variance", "shape": [256], "dtype": "float32"}, {"name": "conv4_block5_2_conv/kernel", "shape": [3, 3, 256, 256], "dtype": "float32"}, {"name": "conv4_block5_2_conv/bias", "shape": [256], "dtype": "float32"}, {"name": "conv4_block5_2_bn/gamma", "shape": [256], "dtype": "float32"}, {"name": "conv4_block5_2_bn/beta", "shape": [256], "dtype": "float32"}, {"name": "conv4_block5_2_bn/moving_mean", "shape": [256], "dtype": "float32"}, {"name": "conv4_block5_2_bn/moving_variance", "shape": [256], "dtype": "float32"}, {"name": "conv4_block5_3_conv/kernel", "shape": [1, 1, 256, 1024], "dtype": "float32"}, {"name": "conv4_block5_3_conv/bias", "shape": [1024], "dtype": "float32"}, {"name": "conv4_block5_3_bn/gamma", "shape": [1024], "dtype": "float32"}, {"name": "conv4_block5_3_bn/beta", "shape": [1024], "dtype": "float32"}, {"name": "conv4_block5_3_bn/moving_mean", "shape": [1024], "dtype": "float32"}, {"name": "conv4_block5_3_bn/moving_variance", "shape": [1024], "dtype": "float32"}, {"name": "conv4_block6_1_conv/kernel", "shape": [1, 1, 1024, 256], "dtype": "float32"}, {"name": "conv4_block6_1_conv/bias", "shape": [256], "dtype": "float32"}, {"name": "conv4_block6_1_bn/gamma", "shape": [256], "dtype": "float32"}, {"name": "conv4_block6_1_bn/beta", "shape": [256], "dtype": "float32"}, {"name": "conv4_block6_1_bn/moving_mean", "shape": [256], "dtype": "float32"}, {"name": "conv4_block6_1_bn/moving_variance", "shape": [256], "dtype": "float32"}, {"name": "conv4_block6_2_conv/kernel", "shape": [3, 3, 256, 256], "dtype": "float32"}, {"name": "conv4_block6_2_conv/bias", "shape": [256], "dtype": "float32"}, {"name": "conv4_block6_2_bn/gamma", "shape": [256], "dtype": "float32"}, {"name": "conv4_block6_2_bn/beta", "shape": [256], "dtype": "float32"}, {"name": "conv4_block6_2_bn/moving_mean", "shape": [256], "dtype": "float32"}, {"name": "conv4_block6_2_bn/moving_variance", "shape": [256], "dtype": "float32"}, {"name": "conv4_block6_3_conv/kernel", "shape": [1, 1, 256, 1024], "dtype": "float32"}, {"name": "conv4_block6_3_conv/bias", "shape": [1024], "dtype": "float32"}, {"name": "conv4_block6_3_bn/gamma", "shape": [1024], "dtype": "float32"}, {"name": "conv4_block6_3_bn/beta", "shape": [1024], "dtype": "float32"}, {"name": "conv4_block6_3_bn/moving_mean", "shape": [1024], "dtype": "float32"}, {"name": "conv4_block6_3_bn/moving_variance", "shape": [1024], "dtype": "float32"}, {"name": "conv5_block1_1_conv/kernel", "shape": [1, 1, 1024, 512], "dtype": "float32"}, {"name": "conv5_block1_1_conv/bias", "shape": [512], "dtype": "float32"}, {"name": "conv5_block1_1_bn/gamma", "shape": [512], "dtype": "float32"}, {"name": "conv5_block1_1_bn/beta", "shape": [512], "dtype": "float32"}, {"name": "conv5_block1_1_bn/moving_mean", "shape": [512], "dtype": "float32"}, {"name": "conv5_block1_1_bn/moving_variance", "shape": [512], "dtype": "float32"}, {"name": "conv5_block1_2_conv/kernel", "shape": [3, 3, 512, 512], "dtype": "float32"}, {"name": "conv5_block1_2_conv/bias", "shape": [512], "dtype": "float32"}, {"name": "conv5_block1_2_bn/gamma", "shape": [512], "dtype": "float32"}, {"name": "conv5_block1_2_bn/beta", "shape": [512], "dtype": "float32"}, {"name": "conv5_block1_2_bn/moving_mean", "shape": [512], "dtype": "float32"}, {"name": "conv5_block1_2_bn/moving_variance", "shape": [512], "dtype": "float32"}, {"name": "conv5_block1_0_conv/kernel", "shape": [1, 1, 1024, 2048], "dtype": "float32"}, {"name": "conv5_block1_0_conv/bias", "shape": [2048], "dtype": "float32"}, {"name": "conv5_block1_3_conv/kernel", "shape": [1, 1, 512, 2048], "dtype": "float32"}, {"name": "conv5_block1_3_conv/bias", "shape": [2048], "dtype": "float32"}, {"name": "conv5_block1_0_bn/gamma", "shape": [2048], "dtype": "float32"}, {"name": "conv5_block1_0_bn/beta", "shape": [2048], "dtype": "float32"}, {"name": "conv5_block1_0_bn/moving_mean", "shape": [2048], "dtype": "float32"}, {"name": "conv5_block1_0_bn/moving_variance", "shape": [2048], "dtype": "float32"}, {"name": "conv5_block1_3_bn/gamma", "shape": [2048], "dtype": "float32"}, {"name": "conv5_block1_3_bn/beta", "shape": [2048], "dtype": "float32"}, {"name": "conv5_block1_3_bn/moving_mean", "shape": [2048], "dtype": "float32"}, {"name": "conv5_block1_3_bn/moving_variance", "shape": [2048], "dtype": "float32"}, {"name": "conv5_block2_1_conv/kernel", "shape": [1, 1, 2048, 512], "dtype": "float32"}, {"name": "conv5_block2_1_conv/bias", "shape": [512], "dtype": "float32"}, {"name": "conv5_block2_1_bn/gamma", "shape": [512], "dtype": "float32"}, {"name": "conv5_block2_1_bn/beta", "shape": [512], "dtype": "float32"}, {"name": "conv5_block2_1_bn/moving_mean", "shape": [512], "dtype": "float32"}, {"name": "conv5_block2_1_bn/moving_variance", "shape": [512], "dtype": "float32"}, {"name": "conv5_block2_2_conv/kernel", "shape": [3, 3, 512, 512], "dtype": "float32"}, {"name": "conv5_block2_2_conv/bias", "shape": [512], "dtype": "float32"}, {"name": "conv5_block2_2_bn/gamma", "shape": [512], "dtype": "float32"}, {"name": "conv5_block2_2_bn/beta", "shape": [512], "dtype": "float32"}, {"name": "conv5_block2_2_bn/moving_mean", "shape": [512], "dtype": "float32"}, {"name": "conv5_block2_2_bn/moving_variance", "shape": [512], "dtype": "float32"}, {"name": "conv5_block2_3_conv/kernel", "shape": [1, 1, 512, 2048], "dtype": "float32"}, {"name": "conv5_block2_3_conv/bias", "shape": [2048], "dtype": "float32"}, {"name": "conv5_block2_3_bn/gamma", "shape": [2048], "dtype": "float32"}, {"name": "conv5_block2_3_bn/beta", "shape": [2048], "dtype": "float32"}, {"name": "conv5_block2_3_bn/moving_mean", "shape": [2048], "dtype": "float32"}, {"name": "conv5_block2_3_bn/moving_variance", "shape": [2048], "dtype": "float32"}, {"name": "conv5_block3_1_conv/kernel", "shape": [1, 1, 2048, 512], "dtype": "float32"}, {"name": "conv5_block3_1_conv/bias", "shape": [512], "dtype": "float32"}, {"name": "conv5_block3_1_bn/gamma", "shape": [512], "dtype": "float32"}, {"name": "conv5_block3_1_bn/beta", "shape": [512], "dtype": "float32"}, {"name": "conv5_block3_1_bn/moving_mean", "shape": [512], "dtype": "float32"}, {"name": "conv5_block3_1_bn/moving_variance", "shape": [512], "dtype": "float32"}, {"name": "conv5_block3_2_conv/kernel", "shape": [3, 3, 512, 512], "dtype": "float32"}, {"name": "conv5_block3_2_conv/bias", "shape": [512], "dtype": "float32"}, {"name": "conv5_block3_2_bn/gamma", "shape": [512], "dtype": "float32"}, {"name": "conv5_block3_2_bn/beta", "shape": [512], "dtype": "float32"}, {"name": "conv5_block3_2_bn/moving_mean", "shape": [512], "dtype": "float32"}, {"name": "conv5_block3_2_bn/moving_variance", "shape": [512], "dtype": "float32"}, {"name": "conv5_block3_3_conv/kernel", "shape": [1, 1, 512, 2048], "dtype": "float32"}, {"name": "conv5_block3_3_conv/bias", "shape": [2048], "dtype": "float32"}, {"name": "conv5_block3_3_bn/gamma", "shape": [2048], "dtype": "float32"}, {"name": "conv5_block3_3_bn/beta", "shape": [2048], "dtype": "float32"}, {"name": "conv5_block3_3_bn/moving_mean", "shape": [2048], "dtype": "float32"}, {"name": "conv5_block3_3_bn/moving_variance", "shape": [2048], "dtype": "float32"}]}]}